saved_params_40000.npy (npy, 836528 bytes, 1 tensors)

array f8 [104550]
0.02016910375526109 0.0398992871847434 -0.17571813297892253 0.586348154834494 -0.5326193443308251 -1.6278419558264239 -0.8194607372095506 -0.24165032753555082
0.27950126534366176 -0.8332647186131056 -0.38772349864515954 -1.1564882939720662 -1.0516767710270736 0.7133766889369235 0.1019291813978631 -1.3049850843652555
-0.45650479794237925 1.2539487986646607 0.3722094421439204 1.4582209749178299 -0.4422680507850396 0.20582666734738067 0.727803963295966 0.034217671273642385
-0.9035013324263864 -1.465650572947414 0.18827894133206538 -0.2425695269424947 -1.7764886986817523 0.612095945795168 -0.05465211313676075 0.7221496148736771
-0.8259215646586591 0.14395692071611063 -0.8353085110531888 -1.2409279505860686 -0.4804787517619933 0.02136354512194928 0.5943895765040405 -0.11151103215050662
1.0450839337359183 -0.43663023004805385 1.3306493622327167 -0.11239651732823792 -0.23356647063483035 0.4458798874045076 0.2154872762568987 -0.2869243801884373
-0.36618736952140907 0.11152567058068812 -0.42901731784151564 0.16105567383688582 0.9539941490267664 0.9539681570058703 -1.4650400961041061 0.16714711819872907
0.12977316964487745 -0.10965155983740979 -0.7940488125500723 0.35392583861392707 -0.14369223459524885 -0.09692789832342638 -0.029941334814175307 0.5363413387757241
-1.2587236841675742 -0.625671470025938 0.8295285871514996 -1.8151619858686039 0.2187207605978439 -0.1920043731538415 0.29360703381894954 0.07276868635128289
1.6440881652630677 -0.2611329991892834 -1.2252697170767202 0.22291094048191062 0.6963286215069987 -0.786989225209156 -0.6009973761166127 -0.5178571430532408
1.081350570826676 -0.10558215783974564 -1.4681320871703922 -1.6898088845947568 0.3903287441443584 0.7343684415970597 1.5878611469091157 -0.7044499287647632
-0.05360526577779657 0.4280957244429065 -0.9133213219488695 0.8085434816309397 -0.014671823585089734 -0.766067561810844 -0.3880162591867018 0.7703533398941788
0.3400999492162697 -0.5981288241613251 -0.26131372964706834 -0.14689949820863646 -0.726516879878922 0.30807540387211596 -1.759120309507467 -0.41439515784886655
-0.0338867744259761 -2.0905402492585883 -1.1719763140920483 1.6391408933714586 -0.01904332387638631 -0.19099588267546141 -0.11370904964683848 1.081875195116387
-1.1639679809519523 -2.1257678371769293 0.2948298247551266 0.35956297325945813 -0.067802073528305 -1.3847772245043497 -0.8651730347502427 0.21651840514090673
-0.07815888785648616 0.3585421431422255 0.6541854874786451 -0.5321150472928106 0.14021570967286412 -0.9927870429054827 -0.5833464734880826 -0.28441119813927734
-0.9689003360276562 -0.20698313400692495 0.3100733257267169 -1.8852878582832107 -1.825259876789658 -0.11899087990032639 -1.32209456487618 -1.6628788866204463
0.3299876044429107 -0.27113592214385585 -1.0198598394381138 -0.46463666462938114 0.8933510111458118 0.6373682560661001 -0.34695607930095357 0.5067014315523094
-1.331774404449418 -0.5102813045537001 -0.49988209371440223 -0.07843514864483943 0.3893368134057044 -0.6829759899838956 1.0900620086654946 0.07887695096984569
-0.3423731725036027 -0.09691482837345369 -0.4396350087294566 3.250439093064617 -1.1382335945967985 0.16338197163261964 0.6922513878568464 0.176059226930548
0.3029409951816167 0.12109528439904674 0.8338169075191375 0.3753612200840384 -1.2398227010842755 -1.5338437635219822 0.15675760525710877 -1.2084802126129641
1.4158548079344335 0.2616886603029469 -0.5932050859127332 -0.4040146206114157 0.6990526897579313 -0.49250190957050427 -2.9190978822121543 0.9629081878139504
-0.18458822074210932 -0.37626034233120054 -0.5770248099701621 0.061691760109665414 0.915354992882761 0.08728416772260185 0.8443673682415308 -0.16118576783910482
0.9557830482845459 -0.7156442963018955 1.1754148187574527 -2.4453416038410487 0.2504515925646588 0.4253610304771538 1.464575386934526 -0.0019052337178777825
-1.2390253299800167 -0.4330169156066825 -0.14614989100882192 -0.04781433889156614 0.3683567262381253 0.13499380576750425 1.2762667989244114 -0.8055872294083137
0.333335308307115 -1.0289224491367188 0.3176947488928696 -1.3333416277647514 -0.6150927197887643 0.051621648324820205 1.217358441318906 1.5696285524550833
1.421427376795172 -0.02417271489885074 -0.7337112777821035 0.1909607760927781 0.7378430571624244 1.2589085927285366 0.35667638117827444 -0.5794887665216312
0.6841627884320727 0.30027206657918115 -0.4166326668549551 -0.19917154034098214 0.6553906716663597 0.051326057595497264 -1.0054898237857341 0.355658843265595
-0.5323482429563078 0.991086397299147 -0.11232593967317164 -0.033471556871260924 0.28072058512538317 0.5692458187371577 0.2617272783511077 -0.6170305121388356
-0.7108375174038156 -0.719219785398111 -0.7778949459854291 -0.845537534120832 0.8915233145745912 -0.3765967811173758 0.9170349136742877 0.17042375407265623
0.45091883830656676 0.049811497507522715 -0.9078703254816335 -1.4965797469587132 0.8106577380897664 0.39614230989077737 0.42251536894761177 0.20577199039524335
1.7955044036721473 -1.2734888627785588 1.2168242595915633 -0.1441825555944173 -1.8886565360007923 -0.6234792496483789 0.5626883933778639 1.827010358417965
00000000: aeeb 12a4 35a7 943f d932 2feb ad6d a43f
00000010: 16b5 3a89 ee7d c6bf eab0 a234 5dc3 e23f
00000020: 7cc5 23b9 370b e1bf 764c b501 a40b fabf
00000030: 6879 55b9 0539 eabf c89b eade 65ee cebf
00000040: 85dd 7546 59e3 d13f 6753 6bc5 1aaa eabf
00000050: 1696 a438 76d0 d8bf da11 8dde f980 f2bf
00000060: f762 9805 abd3 f0bf aecf 9659 fbd3 e63f
00000070: bfa3 9ce4 0718 ba3f 7cdd 310a 38e1 f4bf
00000080: 7b4b 68e6 5f37 ddbf a7f8 919d 2c10 f43f
00000090: 9050 518d 47d2 d73f 24d0 5984 df54 f73f
000000a0: 90fe 8ba7 1e4e dcbf f569 733a 8758 ca3f
000000b0: e52b 8889 2b4a e73f bf92 2186 fa84 a13f
000000c0: 793d 55a0 7be9 ecbf d0c3 e203 4e73 f7bf
000000d0: 09fb c53b 8619 c83f c5b2 9cac 840c cfbf
000000e0: ddd3 e869 7f6c fcbf bc8a a63c 4a96 e33f
000000f0: bdcb 289d 5cfb abbf 2f72 5682 d91b e73f
00000100: 94a4 a80f f36d eabf 7f18 412d 2e6d c23f
00000110: a267 21ea d8ba eabf fc59 4744 d7da f3bf
00000120: 0867 4ff3 29c0 debf e466 803e 53e0 953f
00000130: 6f61 054a 3d05 e33f 10c9 3aac fc8b bcbf
00000140: 6688 4fee a9b8 f03f 1516 a0eb bff1 dbbf
00000150: 73b9 53fc 564a f53f 9dec 1ba6 04c6 bcbf
00000160: 7fcc 6890 81e5 cdbf 6d2d 96cb 4b89 dc3f
00000170: a11e 1d4a 1695 cb3f f366 5513 f85c d2bf
00000180: c05f 1326 9d6f d7bf 7bfb ce43 f28c bc3f
00000190: 2e01 630d 0575 dbbf 397a fbe9 789d c43f
000001a0: 65a6 d4bc 1e87 ee3f d97f 783a e886 ee3f
000001b0: 8888 41e2 cd70 f7bf 4460 24a7 1365 c53f
000001c0: f2f1 c23f 689c c03f 0602 75e7 1f12 bcbf
000001d0: f590 2a0e d968 e9bf a198 838f b8a6 d63f
000001e0: e54b 23d4 8164 c2bf 467f 5e49 44d0 b8bf
000001f0: cb47 4df7 f0a8 9ebf 601b b14f b529 e13f
00000200: b134 2372 bb23 f4bf 1aa7 b92c 8005 e4bf
00000210: 7735 1d89 7f8b ea3f 16f8 634b e70a fdbf
00000220: 8aab dcb8 0aff cb3f d23e b16b 9993 c8bf
00000230: 6730 0828 75ca d23f 6238 0df8 f7a0 b23f
00000240: 72ba 5864 2f4e fa3f d328 db2e 67b6 d0bf
00000250: 9efa 396b b49a f3bf 1c2c a57f 5888 cc3f
00000260: b585 14f6 5248 e63f 8d7c 1207 042f e9bf
00000270: 9ee2 6cd9 5e3b e3bf ba3c ad24 4992 e0bf
00000280: 5362 9341 364d f13f 367b f6aa 6e07 bbbf
00000290: 4fae 4912 787d f7bf 0c32 7d0a 7509 fbbf
000002a0: 397b b269 25fb d83f a4f6 fb3e f27f e73f
000002b0: ee04 0917 e167 f93f a0da b693 da8a e6bf
000002c0: a16b d13e 2672 abbf a18a 029c eb65 db3f
000002d0: f350 10a3 ed39 edbf aff6 5f94 96df e93f
000002e0: e4df c3d3 420c 8ebf 0b21 901e a083 e8bf
000002f0: 307b e125 42d5 d8bf 41b7 260c bca6 e83f
00000300: 3354 d093 32c4 d53f a12b 520f df23 e3bf
00000310: ce1d b538 5db9 d0bf 806d 4d4e 9acd c2bf
00000320: 414d e253 a03f e7bf 724b 15e6 81b7 d33f
00000330: 0406 7156 5b25 fcbf 9539 a544 7385 dabf
00000340: c15d da77 9b59 a1bf 714c 8c2a 6db9 00c0
00000350: 3c64 4b3c 6ac0 f2bf f310 29cd eb39 fa3f
00000360: 445d 06d5 1780 93bf 5881 e196 8d72 c8bf
00000370: b00e 7e49 091c bdbf 570e 565d 5c4f f13f
00000380: 017a bce3 9c9f f2bf 2e82 5c91 9201 01c0
00000390: 035b cde9 7dde d23f 0d1f c06a 1403 d73f
000003a0: d6b1 6708 7a5b b1bf 8bde b729 0c28 f6bf
000003b0: 8444 345c 7faf ebbf 8df8 8706 e0b6 cb3f
000003c0: 373f 3c8b 3802 b4bf a726 c2be 5af2 d63f
000003d0: 99a2 4767 16ef e43f afa0 ba22 1607 e1bf
000003e0: c416 b79f 96f2 c13f b97d 2555 e9c4 efbf
000003f0: abc8 3b39 c6aa e2bf b7f5 a706 cb33 d2bf
00000400: 6a4f 0a47 3b01 efbf e510 b15f 6c7e cabf
00000410: d3ec 56ca 3dd8 d33f d4f4 ed99 232a febf
00000420: 7d33 58b3 4334 fdbf d6b4 b1b1 2f76 bebf
00000430: facc 65a1 4c27 f5bf 3be6 33e4 269b fabf
00000440: 5dbb 4a54 841e d53f 043c 987b 4a5a d1bf
00000450: 873f 0e8d 5851 f0bf fcc3 c66b 9bbc ddbf
00000460: 8c08 17dc 5496 ec3f 9fff e91c 5265 e43f
00000470: 1bbe 6f45 8734 d6bf 4b50 abeb e536 e03f
00000480: 7b29 8cad f24e f5bf fd2f 5a75 3954 e0bf
00000490: d5ff 1677 11fe dfbf 0557 496e 5314 b4bf
000004a0: eb34 2df4 e4ea d83f c8e3 9d76 f0da e5bf
000004b0: 3049 5ddc e470 f13f dfdc d2a4 4731 b43f
000004c0: 3f91 bb2a 71e9 d5bf 1a87 5c02 69cf b8bf
000004d0: 36dc 2ae0 fa22 dcbf c7d1 1236 e600 0a40
000004e0: 4207 006e 3436 f2bf 5684 7550 b3e9 c43f
000004f0: a495 ee61 ec26 e63f 0db2 e9d6 1b89 c63f
00000500: 210e bba0 6263 d33f f297 31be 1900 bf3f
00000510: 8eb0 94cb a0ae ea3f 88a5 1c11 eb05 d83f
00000520: f1ec 1f54 50d6 f3bf ee01 18c2 9f8a f8bf
00000530: 7341 fd19 a210 c43f ab92 f058 ef55 f3bf
00000540: 7067 ff5e 57a7 f63f b00d 6fcb 81bf d03f
00000550: 291d 7a3b 89fb e2bf b070 a823 60db d9bf
00000560: e51d 16bf a35e e63f d3a9 b4ba 2685 dfbf
00000570: 7b64 8ffd 4f5a 07c0 f5c4 f6d4 24d0 ee3f
00000580: 5337 a839 96a0 c7bf 8808 4642 a614 d8bf
00000590: c3ad f9bb fc76 e2bf e616 35f8 0f96 af3f
000005a0: 3b2d d58d 964a ed3f 59c0 d355 4158 b63f
000005b0: d905 0db7 0e05 eb3f 9e8c b938 bca1 c4bf
000005c0: 8b81 ce54 c695 ee3f 3bf0 05de 8ee6 e6bf
000005d0: 9fc0 dcc4 7fce f23f 2b5d 4042 0f90 03c0
000005e0: 03f7 d21d 6607 d03f 601a b978 1d39 db3f
000005f0: bb90 d699 e66e f73f 5800 9c20 2137 5fbf
00000600: 61e0 7239 0cd3 f3bf c34f c994 8cb6 dbbf
00000610: 8832 1925 0ab5 c2bf fc65 a3fb 1e7b a8bf
00000620: 7414 1d17 2893 d73f 8a8d 771e 7a47 c13f
00000630: 839d 25bc 966b f43f 6049 8cde 5ec7 e9bf
00000640: 22fe f19d 5d55 d53f 5199 d262 7776 f0bf
00000650: 8bc5 265b 1c55 d43f f951 da07 5e55 f5bf
00000660: 9003 70ed d6ae e3bf e234 a416 276e aa3f
00000670: 7996 4fd8 4c7a f33f 3499 3ad4 321d f93f
00000680: de96 0fa2 2abe f63f 5bcd c86f bbc0 98bf
00000690: e8f9 d812 907a e7bf c191 1118 6771 c83f
000006a0: 14fc 020b 699c e73f 59c2 2656 7d24 f43f
000006b0: f7a4 1a2c c9d3 d63f 5d83 9306 2c8b e2bf
000006c0: e496 2e5c a9e4 e53f e408 7754 a837 d33f
000006d0: 3f96 a50f 1caa dabf b77b 07fa 737e c9bf
000006e0: b922 9ddb f5f8 e43f c34c 9cb5 6847 aa3f
000006f0: b2ed 597f 7c16 f0bf 8df8 164f 1dc3 d63f
00000700: ac92 b22e ff08 e1bf 2c21 fdd1 fab6 ef3f
00000710: 8a84 638d 64c1 bcbf 226f 3714 2f23 a1bf
00000720: 3d5c 1b79 53f7 d13f f98b db01 4337 e23f
00000730: 5b4d 3fc5 23c0 d03f 5da7 c8c5 b6be e3bf
00000740: 719d 4052 2ebf e6bf 0a79 1d36 d903 e7bf
00000750: 3565 17f1 83e4 e8bf d6dc 12bb a40e ebbf
00000760: 3d05 f7e6 5b87 ec3f 5864 ab62 291a d8bf
00000770: 12ae 709a 5958 ed3f bd0f 1a11 72d0 c53f
00000780: 3c54 ebaf dadb dc3f b6e9 8481 e480 a93f
00000790: cf7a 9e11 460d edbf b4b2 d09a fdf1 f7bf
000007a0: 4209 2b7f e8f0 e93f 02bd 6246 655a d93f
000007b0: d0fd ebe6 7d0a db3f 3a17 9790 bc56 ca3f
000007c0: 9f88 59d3 62ba fc3f 2a44 97db 3560 f4bf
000007d0: 88cd feb6 1c78 f33f bd42 77f0 9274 c2bf
000007e0: 3400 78ea ef37 febf 572e 5fc1 8af3 e3bf
000007f0: d6b1 ec16 8b01 e23f 00bc ad36 6f3b fd3f
