saved_params_30000.npy (npy, 836528 bytes, 1 tensors)

array f8 [104550]
00000000: 4fe2 c0f5 936b f6bf f245 22be ad04 ae3f
00000010: 61f4 4cdb a3f1 d73f 42c6 ba94 f971 f43f
00000020: 875f 846a a365 e7bf fab0 6698 7d61 f0bf
00000030: 5e46 20d8 4e79 e5bf 427b 84b4 52ef c73f
00000040: d9db 0801 d0aa f83f b9ce a32d 9723 f3bf
00000050: e3d0 4e7e 540b e5bf 8e7a bdcf 74b7 f8bf
00000060: d97f 9fae 9293 e6bf ca2a 7aa6 fcbc f23f
00000070: 8ee9 0973 fa99 c03f 6815 b17e fb7c f8bf
00000080: 95ea e695 92a9 7cbf 3238 778d 589c f53f
00000090: 04dd 3599 b34e cc3f cd02 84a1 17ea f33f
000000a0: 947e 7929 283f f2bf d021 3570 38ed e2bf
000000b0: 602f a381 785a e53f 1c0a bd50 2266 cdbf
000000c0: 4eeb 78b3 3fb2 e8bf af57 cd9b 2304 febf
000000d0: ca06 2520 09ca f1bf 3fbf 3ef2 cf79 f6bf
000000e0: a4dc 5074 cab5 00c0 0607 85f5 953e ed3f
000000f0: 97cf 73a1 2d7c e1bf 52a9 8f09 507b d53f
00000100: 29db 6f9f 5529 f1bf 7eb9 24f3 21e2 e13f
00000110: 779b 9e10 523c edbf 5a23 c89c 3efc e3bf
00000120: 6ba8 f54d dee4 ce3f 058b 3942 2511 c3bf
00000130: 2a50 9f37 acaf f53f 69c7 0c58 5d9c cabf
00000140: 3491 0ea5 860f ef3f 9fa8 504b 1063 ecbf
00000150: 5d30 065b 40a2 0240 b033 e366 d84a 85bf
00000160: 7eff 7a36 c7d7 d63f 95ca c9cd 5bd2 e53f
00000170: 1c8a 9e90 90f7 ef3f 9f91 96c8 2b1b cd3f
00000180: 989e bdc4 0e27 f8bf 959c 8fec a59b d03f
00000190: 0d66 26dd 62a1 d33f fd69 c5d6 4e36 b83f
000001a0: 3327 7d3b f61e da3f 0f4d 322f 943e f33f
000001b0: 776b 5e73 1158 f5bf 8f14 a818 e6a0 db3f
000001c0: 2c16 365e eb13 efbf 6696 b797 7c21 cfbf
000001d0: 7556 e0f3 1b47 ddbf 21a2 0728 db7f d63f
000001e0: 0664 c6ee ea38 edbf 2ea9 4168 60d6 d13f
000001f0: 63e2 03ec 771b ddbf aac1 7ac7 cca7 cc3f
00000200: 565c 9479 20f4 fdbf 2c2f 7889 51e9 debf
00000210: 2ff2 a93a d8da f33f 144a 8d21 e35e f9bf
00000220: 6035 b735 710b e43f 080c b306 8bca e43f
00000230: d8cc 1c23 f4e2 c93f 4cf8 5e56 306a 963f
00000240: 1abb 2d88 f0a3 fc3f 1548 ee7c 453a ddbf
00000250: c643 1fea 7ac9 fdbf f592 62ef 4c5f b93f
00000260: 4248 87d9 9e92 ee3f 7f6c 034d 687a ccbf
00000270: f657 c3c4 4d03 d1bf c6dd d54d 70df e0bf
00000280: ae69 3aaf 8d1a f33f 0e39 1188 c2e5 e5bf
00000290: 3ecc 87f1 2c9d fabf e6ec 1078 b56d fabf
000002a0: bb3b feec 93ce d03f 030f 05ba db7c e23f
000002b0: 7c5a 8118 6807 0040 0bcf 97ba aeca debf
000002c0: 7a8b 370c ca9b b8bf 2e4e 136c 7de5 db3f
000002d0: 5419 bf23 44eb fbbf 0ebf a11e 554a 0040
000002e0: 42d6 4ccc 953c dbbf 7096 3c6b df94 e7bf
000002f0: 1f08 5c9b 55a4 e8bf b984 254a fc6d eb3f
00000300: 2ce2 765f 8bf8 dabf 1796 8315 4dfe e0bf
00000310: 0666 76b0 c6a2 e5bf f0c7 2159 99e3 afbf
00000320: fb37 4fa1 1961 e4bf fa2e 45c6 8e54 e83f
00000330: 6b0f 9902 d34a f5bf 7818 c2d2 19c9 d8bf
00000340: b199 0018 dc8c f8bf 7d4e 42ac c890 b8bf
00000350: 8eb5 96c2 9cae b7bf df99 7200 76a2 fa3f
00000360: 5f6a bdf2 78b7 c33f f950 c93d 817a da3f
00000370: 8313 f7ff 2b9f d2bf a693 2ddb fd30 f83f
00000380: aa56 419a 4637 fbbf f477 fcce 4d8a efbf
00000390: 7333 f25f 84f3 eb3f 9175 777b 40d7 df3f
000003a0: b7b0 710b ecb6 e93f f052 6090 63dd efbf
000003b0: 5480 5b63 8ce4 f7bf 5ba3 8858 ff87 ed3f
000003c0: c79e c70e 99a1 e93f ea1b 607d e6dc e43f
000003d0: 569b dd3b b0e7 e63f 9a40 5008 a93a ecbf
000003e0: 9b6e c47a bb5d c33f 5348 7668 84a1 e3bf
000003f0: bb43 c9f4 96a6 f0bf 2f4d 0089 3872 ca3f
00000400: e263 6a39 56b9 e1bf 54c9 8674 c7bd e83f
00000410: 7683 e73e 4543 e53f f2c0 ae0a 98b8 f6bf
00000420: 6252 ca88 477a f8bf e9d2 550c 713b fbbf
00000430: 3f59 2424 960c f3bf e804 d37c f5ef f1bf
00000440: 4e6f 422a 4f04 f33f bf4a 6e52 88c9 cabf
00000450: 0079 cd13 a475 dbbf b9b0 b6f0 f961 cfbf
00000460: 4324 0afd 2715 e73f 18f9 61c5 5be3 c83f
00000470: 8596 c2e9 7bdf c03f fcb3 07c1 cf04 ec3f
00000480: f8b8 1e05 7f2b f2bf 4a7e c1e2 343a b5bf
00000490: 145a 489f d8fb d9bf e135 656c ce2d d33f
000004a0: 130f 3be9 6ce9 e43f 6946 7da5 9859 b9bf
000004b0: 4709 a1eb 9361 68bf 3dbf 7e98 cfb8 a03f
000004c0: 8586 1e9d a32e d5bf cb4f 5f1d d7dc d2bf
000004d0: 1929 d096 7396 e3bf cd0e d453 494e 0640
000004e0: 4964 9764 f5e4 ecbf 4a8e 9aad e918 b5bf
000004f0: e0db 6e13 9954 bb3f 9c3f ebd1 34fc e2bf
00000500: d3a3 2694 64df b5bf 0ab3 3620 f783 d43f
00000510: e0c7 99a1 cdf7 ad3f d22c 58b3 0557 ed3f
00000520: 1956 9628 e906 f9bf 119a 81cc 2ed0 fcbf
00000530: 0a80 34f9 ea89 e63f 7747 bd6c 4b14 f6bf
00000540: dabb 915d 29ae f13f 4164 d6da 67ad dc3f
00000550: d4f1 1191 8d01 d7bf 8d80 d1c0 abfa d7bf
00000560: a886 7acb b1c2 f13f cc85 0fb6 a7a1 eabf
00000570: 02c7 c1ce 118a 0ac0 195e b2ca b15e f53f
00000580: 6223 b43d 803f dfbf 5fd8 2925 08dd d8bf
00000590: 02f9 27f7 f2eb ecbf 4581 764a 18a4 7e3f
000005a0: eb7d 2e39 a78f e53f c4bd b08d 32d7 d03f
000005b0: 6e2a 7bd2 8137 f53f 302d 351f f550 cebf
000005c0: 09ed 4141 5bb1 f93f bd79 9efd 9846 dfbf
000005d0: 0cd8 d8cb 980e ddbf 1ba0 f0a6 2225 02c0
000005e0: 87dc 89ce 1e23 a3bf 2fd7 7614 f5c0 eb3f
000005f0: a4c8 abcf ce7b f13f e637 a0c6 d5a0 e0bf
00000600: ff08 71df 4f19 f5bf f242 7d9a 5f38 d1bf
00000610: bc11 4d84 e1b5 c83f 8008 e874 bc96 bcbf
00000620: d964 b574 85f4 b8bf 48d1 4de6 1643 c53f
00000630: 6ac3 2967 f1b2 ee3f ee0b f517 a263 f3bf
00000640: de8a 2bf6 7dbb fd3f 962e 534d e987 f7bf
00000650: eb6c a8b4 3dc4 d63f d296 da81 7bdf f7bf
00000660: 349c baa1 2a3f ce3f d722 aa90 9dba d1bf
00000670: cf89 3f06 c3dd a63f 9b75 a9a5 71dc f63f
00000680: 0b7b 2a5f a26b c4bf 3398 80ab b050 ef3f
00000690: 4597 f62a dd0b d8bf 400d c306 c231 9c3f
000006a0: cab8 152b c588 ee3f 3fcb 4005 d090 fa3f
000006b0: 7a26 b259 749c e1bf 6218 6c47 487f d5bf
000006c0: db02 7339 cc51 f23f 42d0 57c7 7529 ee3f
000006d0: 84f7 32ad fe16 b7bf a5c4 dde9 3bdf c83f
000006e0: 87f3 aba9 e293 f23f 15d1 273d e4cb e23f
000006f0: 600a 0d9c 6c54 d5bf c4f8 cd24 5f40 c8bf
00000700: a2fb 6e6f 6ebd e0bf fd3d b0ee ab08 e83f
00000710: c999 d402 8305 e0bf 3b65 8a0b 86a1 d3bf
00000720: 83d4 f748 77a7 e93f 576a 60af 2b8a 8d3f
00000730: c533 3fbb 3f7d e13f 5110 7cd1 f8dc efbf
00000740: a661 7c02 e890 e9bf 5586 1fdc 0222 04c0
00000750: c66f 8284 4376 e9bf 06e6 3c7e 081c d2bf
00000760: f082 14ea d421 f33f 1836 66ff c366 d0bf
00000770: 82e4 0734 c158 e93f 8b70 702a d319 d5bf
00000780: f1c6 3b83 4b15 d2bf ced8 a47a 4469 cfbf
00000790: ce80 4236 912e eabf 5207 e58b b32e f7bf
000007a0: 401e 4bc8 e1e0 e73f 9f91 8476 e3b5 e43f
000007b0: 5c58 0333 b0c7 ea3f 47f9 989a fb2d ce3f
000007c0: 1397 2435 2797 ff3f 4030 7066 41be f2bf
000007d0: 59ad 42a4 ab17 e0bf 648b ee35 1475 e5bf
000007e0: ca1a 35ef d3bc febf ccfd a178 b272 e3bf
000007f0: 4128 9142 e199 d43f fdc7 4084 5ed7 e43f
-1.4012641525024667 0.058629445514394876 0.3741235391242466 1.2778259095906752 -0.7311570244228144 -1.0238014176530315 -0.6710581036770227 0.18699106039363228
1.541702274362015 -1.1961890967185538 -0.6576330630255395 -1.5447891344880733 -0.7055142794233645 1.1711393836036899 0.12969904534459115 -1.5305132817169014
-0.006997654533217675 1.350670387840648 0.2211517809007334 1.2446514424520274 -1.1404191608525354 -0.5914575759462029 0.6672937900525362 -0.22967938368135854
-0.7717588906592512 -1.8760105215091973 -1.111825109066944 -1.4047393286418381 -2.0887650572945677 0.9138898654275358 -0.5464084771506234 0.33565140660961845
-1.0725914218907724 0.5588540791411984 -0.9136133503533149 -0.6245415746826481 0.24135950857754848 -0.14896074041015353 1.3553888485666996 -0.20789686965286627
0.9706452583091392 -0.8870927306172866 2.3292243109954556 -0.010396662368657633 0.3569200546298744 0.6819285411168773 0.9989703011127093 0.22739169401496626
-1.5095355687316552 0.2595000085988855 0.30672523113898437 0.09457867377697222 0.4081397610612953 1.2027780383694482 -1.334001017245752 0.43169548423640774
-0.9711815681518536 -0.2432094326788274 -0.45746516052290725 0.35155371579324607 -0.9131979621480475 0.2787095087175143 -0.4548015408359218 0.2238708471318323
-1.8721012829971833 -0.48299063133957776 1.2409288684422213 -1.585665827810435 0.6263967560895871 0.6497244959685995 0.20223857607343265 0.02188945319334605
1.7900243110158898 -0.45668160629532056 -1.8616894860644932 0.09911042065011684 0.9553980110743014 -0.22248557815951028 -0.2658266469492213 -0.5272752304289774
1.1939827771044338 -0.6842968614162446 -1.6633729395660022 -1.651784390457402 0.262608510435651 0.5777414925764507 2.003616515586428 -0.4811207601735396
-0.09612715528741758 0.43588195375670835 -1.7449380298945316 2.036295165358644 -0.42557282401262253 -0.7369229406801434 -0.7700603517880643 0.8571759651350909
-0.4214199478406353 -0.531042615909146 -0.6761201330693332 -0.06228331769024453 -0.6368530417037158 0.7603219864335806 -1.3307676412086618 -0.3872742231545838
-1.5343895852653129 -0.09595922666113128 -0.09250812292767405 1.6646633164870008 0.15403663494619743 0.4137271026022656 -0.29096508022876594 1.5119608461038552
-1.7009950662226552 -0.985632805128033 0.873476207155916 0.4975129323700794 0.8035793517606383 -0.9957750148629128 -1.4932979470395553 0.922851250569788
0.8009763039271655 0.6519653748263157 0.7157822770358091 -0.8821606790898102 0.15129798407075587 -0.6134664573930969 -1.0406713067970788 0.20661074342260963
-0.5538741227529693 0.7731663967045201 0.6644617298698978 -1.4200668732919977 -1.5298533767101152 -1.7020121080251391 -1.1905728732868537 -1.1210837245892495
1.188552060199942 -0.2092752840513494 -0.42905523237085674 -0.24517750028224386 0.7213325445346829 0.1944384301932096 0.13182019151752314 0.875587346088309
-1.1356191825867068 -0.08291941200285993 -0.40599647097533986 0.2996707972095845 0.6534943156516156 -0.09902338066356155 -0.0029762162276096046 0.032659995427251044
-0.33097162574458877 -0.2947290217246034 -0.612115664059533 2.7882257985200796 -0.9029490437197946 -0.08241138924000171 0.10675961231650843 -0.5932869052867207
-0.08543995491949312 0.3205545248591056 0.058531213738106436 0.9168728354283309 -1.564187201065016 -1.8008258808637303 0.7043356768881506 -1.379954743159457
1.1050199179696762 0.4480838429531709 -0.35946978728295886 -0.3746747382156251 1.1100328396209225 -0.8322332912322792 -3.3174167778860246 1.335618774208234
-0.48825078988789106 -0.38849071149105 -0.9038023783939766 0.007480711828435742 0.6737857930019663 0.2631346114821691 1.3260515424650765 -0.23684562705816736
1.6057999180910107 -0.48868393676266547 -0.4540159216588797 -2.268132499903016 -0.0373773219225138 0.8673043632213416 1.092726527419054 -0.5196331862841788
-1.3186796882806104 -0.26906576239438984 0.19305056533825204 -0.1116750512519804 -0.09748109912233661 0.16610990758239041 0.9593436255364456 -1.211824506361832
1.8582744232195902 -1.4706814785485327 0.3557276024091169 -1.4920611450592571 0.2363026895229453 -0.2770151055088212 0.04466065837165766 1.428819319836612
-0.15953473707937635 0.9785998677878126 -0.37572411723737204 0.027533561384882832 0.9541955796719546 1.6603546338271398 -0.5503484489319839 -0.3358936974985963
1.1449701542007265 0.9425610440653218 -0.09019462326520339 0.19431256217243234 1.1611048343467887 0.5873891062206292 -0.33327784766530577 -0.18946446702097408
-0.5231239487110211 0.7510585462459286 -0.5006728225023888 -0.3067336189938776 0.8016926217229784 0.014423695840425283 0.5465391785779664 -0.995724114560753
-0.7989387558509875 -2.5166070172424875 -0.7956864917828106 -0.28296100929182477 1.1957596915964892 -0.2562723154195239 0.7920843139865072 -0.3297012247510415
-0.28254974189540777 -0.24540000904534626 -0.8181844768296516 -1.448901697600793 0.7462014114361821 0.6472031893541049 0.8368760105465856 0.2357782845373981
1.9744026256461822 -1.171449089192734 -0.5028894623004972 -0.6705418637614966 -1.9211005538979173 -0.6077511173352206 0.32189208508191675 0.6512901862208761
