saved_params_40000.npy (npy, 836528 bytes, 1 tensors)

array f8 [104550]
-1.3827317158208725 0.06189289206323293 0.3740094428704894 1.2740875318317553 -0.7119390782229836 -1.053328887902068 -0.6679849705232798 0.1849221413710148
1.5165798086000144 -1.1741189091291122 -0.6448397210573018 -1.4576012582265516 -0.6864302768325896 1.1711403369671738 0.13567823728310574 -1.525433855236183
0.05951372681495413 1.3408089038100495 0.2352733522798248 1.251682352940373 -1.141376280071409 -0.5651372851772586 0.679840837914983 -0.17042917678930766
-0.7605463401389031 -1.8486139382495395 -1.0599058478859489 -1.3688396435103665 -2.077696932346484 0.9047259246959928 -0.5324211759397801 0.3352503008541955
-1.0687192326883983 0.5228238663243743 -0.9160860937494373 -0.6249680018621868 0.24067361570698373 -0.14734553172718876 1.348722070770835 -0.2050682577981509
0.9713629316800523 -0.8753194505113193 2.3394804547993733 -0.010297914857082001 0.3559524341384366 0.6942483930331298 1.0195561510118514 0.21615642702444265
-1.4972520214562022 0.25635719378043165 0.2589454150498075 0.09331631890107232 0.41004257339188616 1.1846511516521785 -1.344478306637041 0.45820116468130867
-0.9652571676189173 -0.24039691425876808 -0.4874080650592005 0.3410612700614127 -0.9364299279074622 0.2588237811896128 -0.4609935195921399 0.22600701211777097
-1.843817936357982 -0.47188633468900143 1.2121258327368023 -1.5815124028115217 0.6064127367623201 0.6464803672383108 0.22616333274228384 0.035310227527088664
1.7652389031363802 -0.4324673984934427 -1.8609144243461597 0.10001685360609343 0.9117868838439105 -0.2230668057568662 -0.26878327504413696 -0.5209914077237914
1.212073899287039 -0.6780220435347452 -1.6592383560865116 -1.6428953258544483 0.25168916895769755 0.5753367892831522 2.001603902908787 -0.47358946640983024
-0.09025692394976381 0.43735344225066247 -1.7393232945243053 2.0128715467353286 -0.42291581985068644 -0.7401365946379566 -0.7688219509045964 0.8495535943299511
-0.4498727162808847 -0.5311987147975089 -0.6740874848597217 -0.07255356914891291 -0.6105567716950813 0.7494367626488856 -1.323231338971448 -0.39621207443513146
-1.5256619412835137 -0.16000573755453804 -0.09401992686545801 1.6543654493147186 0.15488602531901527 0.41195955866875295 -0.2971569739026172 1.4870155038776913
-1.7003207367411015 -1.0080144543068397 0.8483389962515706 0.4882051716460124 0.8040208838679994 -1.009750590687543 -1.4857218529418674 0.9124256835709869
0.7857299051992107 0.6422264643022112 0.7188804422337216 -0.9159731757801116 0.15390621821446612 -0.6190047761570657 -1.0631101533874376 0.20292674509639255
-0.564541045819354 0.756477217860742 0.6496370248120338 -1.422985806170272 -1.5407978360872359 -1.6674704503643645 -1.19748877252894 -1.1327222427152723
1.19717269937919 -0.21913344118461195 -0.43445180905960745 -0.2557101020284465 0.7151687657558852 0.19904218001969962 0.11043961147923317 0.8655767558947107
-1.1395041131483756 -0.09764494754967308 -0.42464184832940227 0.29492795116148945 0.6476977136579007 -0.10576547581345067 0.019693803638327716 0.03389827099950302
-0.3318285162177882 -0.2971791644874654 -0.6156889684255449 2.8329100359460395 -0.9009115528190047 -0.08128456996214907 0.1453786420304415 -0.5854725267871048
-0.08968735883868095 0.32215787865679274 0.08032921862336523 0.9041856047089005 -1.5428014688051532 -1.819976631567483 0.7125915666114037 -1.3765105400468485
1.094947236917624 0.4518241766016604 -0.3587190943661935 -0.3410168062460257 1.1182495532423544 -0.7933158079540304 -3.30334326323776 1.3174673515822906
-0.41147002679095596 -0.40096095370450757 -0.919124701082282 -0.0008120337696224768 0.6904745799560267 0.25810649345673053 1.3034040018764061 -0.17983028745825969
1.5519763309626002 -0.4829474629208055 -0.4516901321519305 -2.26157760237324 -0.02852793738802934 0.8566751779827205 1.0958877596989653 -0.5148304257510381
-1.3281841331704578 -0.26803196625179376 0.1957222298867441 -0.10523086674961396 -0.11544847441935213 0.1513972495551555 0.9673112230318477 -1.2029439403846514
1.7508760614943562 -1.468613345061188 0.35914754325476117 -1.4824171531827346 0.22404616351454593 -0.3032899532971281 0.052605528962457966 1.4190033840246865
-0.14506279899633973 0.9499534232471397 -0.38282738738294786 0.04141514277744792 0.9462657666717006 1.661746753942628 -0.5456817546404112 -0.33678519538554513
1.1182276537262765 0.9212053573249394 -0.1310725391967271 0.19652107087705667 1.1546826373332828 0.5874898485079656 -0.35335511211405796 -0.1821634770547974
-0.5227043366358944 0.7484455506676274 -0.4942844307342149 -0.277757792585053 0.7970787933777035 0.022128766854256007 0.5450497861429513 -0.9998953329160838
-0.8044301207792978 -2.4707744103445295 -0.7888294619517106 -0.3038196980917722 1.199556788558658 -0.25928589226502946 0.7876066844834221 -0.3401314046272951
-0.272772261351638 -0.24292791865334074 -0.8013932572868745 -1.4499639185238442 0.7374679402813613 0.6321517748668568 0.8363891244066688 0.2302774942895245
1.9706064507985745 -1.1765297031098192 -0.48867305815510037 -0.6713262793310918 -1.9144057857216774 -0.6201507976066326 0.3100785047275255 0.6754669437086804
00000000: 587b a94a ab1f f6bf 456b 88d6 6cb0 af3f
00000010: 1b88 614d c5ef d73f 0857 979b a962 f43f
00000020: 87c9 3676 34c8 e6bf fc8a 5764 6fda f0bf
00000030: 8dbe 5304 2260 e5bf 8355 bf5a 87ab c73f
00000040: 4360 7b30 e943 f83f 1b32 c5e8 30c9 f2bf
00000050: be4a 23e9 86a2 e4bf 5810 6bb2 5552 f7bf
00000060: ca5d bfa0 3cf7 e5bf 91ce 64a6 fdbc f23f
00000070: 8676 f48b e75d c13f ad35 8754 2d68 f8bf
00000080: 1da7 aa4c 9578 ae3f decb 8009 f473 f53f
00000090: d3c0 d4ec 6f1d ce3f 6abf 2d13 e406 f43f
000000a0: b063 35c6 1343 f2bf 07c5 b2c9 9a15 e2bf
000000b0: 1690 aa92 41c1 e53f 5311 4c8e 9fd0 c5bf
000000c0: 8da6 3f47 6556 e8bf 7362 7b35 ec93 fdbf
000000d0: 1926 98d5 5ff5 f0bf 7186 e565 c4e6 f5bf
000000e0: e06b bb91 1f9f 00c0 6934 4dc8 83f3 ec3f
000000f0: b67e 4b22 9809 e1bf c625 89ad bd74 d53f
00000100: d10b 9056 7919 f1bf 8cce ed1d f9ba e03f
00000110: d62c 9fc8 9350 edbf 086d 21e5 bcff e3bf
00000120: 4f5c 3c9e 64ce ce3f d770 fde7 37dc c2bf
00000130: 88aa 1598 5d94 f53f aa6a 583a ad3f cabf
00000140: a899 03b7 6715 ef3f 3af6 afef 9d02 ecbf
00000150: c4f4 5787 41b7 0240 ccab 39bc 1217 85bf
00000160: 7098 e3b7 ecc7 d63f 5217 ec67 4837 e63f
00000170: 2f81 501c 1a50 f03f cef1 7188 03ab cb3f
00000180: 7263 2089 bef4 f7bf 0867 d800 2868 d03f
00000190: eea2 45ca 8f92 d03f 7bfb dc09 94e3 b73f
000001a0: a7e4 ab34 233e da3f cc3c 18c4 54f4 f23f
000001b0: 3500 53af fb82 f5bf b4e6 52fa 2a53 dd3f
000001c0: 11e4 e4ff 62e3 eebf 287e 667a 53c5 cebf
000001d0: 1719 cf98 b131 dfbf b924 36a6 f2d3 d53f
000001e0: 4676 6be5 3bf7 edbf 8cbb e89e 9190 d03f
000001f0: 3b3c 94f6 ea80 ddbf 4433 db3a cced cc3f
00000200: cdf8 863c 4780 fdbf e0c9 babd 6233 debf
00000210: 7fdc a30e de64 f33f abb3 04f3 df4d f9bf
00000220: 67b4 08af bb67 e33f 7c6d 5998 f7af e43f
00000230: 585b d78a ebf2 cc3f 7ee6 e2a0 2e14 a23f
00000240: 0990 e925 6b3e fc3f f164 47bd 8bad dbbf
00000250: f28a 1334 4ec6 fdbf 3d78 495b b49a b93f
00000260: ca00 e1af 5b2d ed3f 2b43 c6fd 738d ccbf
00000270: 93af 01c4 be33 d1bf 4276 352c f6ab e0bf
00000280: 555e dc99 a764 f33f b95c de48 5bb2 e5bf
00000290: e090 ba84 3d8c fabf e7bc f49b 4c49 fabf
000002a0: 1291 5be3 ac1b d03f 5c04 c5b2 2869 e23f
000002b0: 4850 34e8 4803 0040 be75 7d31 4a4f debf
000002c0: 380f 9ae8 131b b7bf 9d9d d04a 99fd db3f
000002d0: 2572 b2a9 44d4 fbbf a637 c265 5c1a 0040
000002e0: fd0f ce83 0d11 dbbf e25e 91f0 32af e7bf
000002f0: 0ca1 f27d 309a e8bf a315 fb04 8b2f eb3f
00000300: 6580 f2ee b6ca dcbf e770 7772 94ff e0bf
00000310: 5bb1 c3ea 1f92 e5bf 3be1 b3e6 de92 b2bf
00000320: ca03 d95a ae89 e3bf 10e8 3fce 62fb e73f
00000330: 68cb de9f f42b f5bf 55ab 7ee3 895b d9bf
00000340: 7408 e97e 1c69 f8bf 770b fc68 117b c4bf
00000350: 6038 0f9f b011 b8bf 6606 c7e7 4778 fa3f
00000360: f321 ad26 4ed3 c33f d770 f09f 8b5d da3f
00000370: 0c2a 2caf 9e04 d3bf 59cb dcc4 d0ca f73f
00000380: f037 5084 8334 fbbf 654a b2c3 d320 f0bf
00000390: 844d 9ad2 9725 eb3f ca4a 7de7 c03e df3f
000003a0: 4673 3001 8aba e93f 35ea 413c f027 f0bf
000003b0: cd67 1547 84c5 f7bf 7df8 de58 9732 ed3f
000003c0: b93b ca0a b324 e93f fbb7 9983 1e8d e43f
000003d0: 5c17 a48e 1101 e73f 91a4 3ffa a64f edbf
000003e0: ffea f0ee 32b3 c33f 5d32 b51a e3ce e3bf
000003f0: 6f83 cdca 7f02 f1bf 291c d6ea 80f9 c93f
00000400: 8266 2162 b810 e2bf c630 dcb5 0f35 e83f
00000410: 62d4 fa95 d3c9 e43f b6c6 c2c3 8cc4 f6bf
00000420: 3ee0 bba1 1ba7 f8bf 09c8 b57e f5ad fabf
00000430: 776c b5fc e928 f3bf 359f be5b a11f f2bf
00000440: 6bf6 778f 9e27 f33f 4786 ac89 900c ccbf
00000450: d856 e6f5 0ece dbbf 1d04 5ee7 8d5d d0bf
00000460: cc59 819b a9e2 e63f 93c5 dad2 367a c93f
00000470: 0e7b 7c37 c545 bc3f 9cdb 5706 ceb2 eb3f
00000480: 7c13 3aaa 683b f2bf 7571 5860 42ff b8bf
00000490: 1b9e c500 552d dbbf 6f8d 3a7c 19e0 d23f
000004a0: 5859 3b8e f0b9 e43f 7a26 aa3b 7213 bbbf
000004b0: 1bea 3dca 9c2a 943f 3de9 aa3a 1d5b a13f
000004c0: 5e47 42ac ad3c d5bf 62ae 21c2 fb04 d3bf
000004d0: 82a9 fc59 b9b3 e3bf f92f a7bc cca9 0640
000004e0: 4947 fe76 44d4 ecbf 9927 a8c9 10cf b4bf
000004f0: a960 8770 c49b c23f 283a 68e1 30bc e2bf
00000500: f8a5 1331 c0f5 b6bf c5b2 3e14 3c9e d43f
00000510: ec8c e6a6 7490 b43f 86a3 37a6 16ef ec3f
00000520: 86d2 cb97 50af f8bf b710 01d1 9f1e fdbf
00000530: 570b 40d4 8ccd e63f b39b 81ea 2f06 f6bf
00000540: 1682 d664 e784 f13f ecf5 82f3 afea dc3f
00000550: fb39 b0ee 40f5 d6bf 98a2 8d27 38d3 d5bf
00000560: 9314 bfa4 59e4 f13f fffe 51d5 d762 e9bf
00000570: 778b 983b 3f6d 0ac0 ae7f 49a5 5814 f53f
00000580: 557d 1661 8655 dabf ac90 c821 58a9 d9bf
00000590: 7f03 8334 7869 edbf 5e60 ec3d d59b 4abf
000005a0: d32c 7425 5e18 e63f 940a 1219 d184 d03f
000005b0: 148e 9827 beda f43f 1c54 bbc9 ad04 c7bf
000005c0: 3468 1a22 e5d4 f83f 0896 bb79 9ce8 debf
000005d0: 712e 61ba 7de8 dcbf 2879 7cff b517 02c0
000005e0: 726a 6a78 6d36 9dbf 6b62 1710 e269 eb3f
000005f0: 74e6 7f9a c188 f13f 52c4 32a8 7d79 e0bf
00000600: 1788 7001 3e40 f5bf bf60 558c 6f27 d1bf
00000610: 7a5c 3b10 6d0d c93f bc25 38fb 68f0 babf
00000620: e813 01fe 078e bdbf 6299 c52d fc60 c33f
00000630: b037 7faa 36f4 ee3f a8f9 2d25 423f f3bf
00000640: 107b f79d 9603 fc3f 881c f8b4 707f f7bf
00000650: cef2 2dfa 45fc d63f 3330 7f0c fbb7 f7bf
00000660: 526c 8b70 8bad cc3f 4575 a743 1a69 d3bf
00000670: 310f f7a4 1cef aa3f 2bca 74e4 3cb4 f63f
00000680: a61a c7f4 6a91 c2bf 133b b2b8 0466 ee3f
00000690: 22aa 3471 3e80 d8bf 4b9d 9397 5d34 a53f
000006a0: ffbc 2525 cf47 ee3f 17af a6c3 8396 fa3f
000006b0: f58a 4695 3976 e1bf 034e fd7d e38d d5bf
000006c0: 73cb 23ae 42e4 f13f 1b8a 53a8 837a ed3f
000006d0: a776 a026 fcc6 c0bf 5a28 323a 9a27 c93f
000006e0: 0ab0 4980 9479 f23f ce5b c282 b7cc e23f
000006f0: eddf 99c2 5e9d d6bf 9ced 3c00 2251 c7bf
00000700: 6983 ea71 feb9 e0bf 9188 5e15 44f3 e73f
00000710: 403a 3b2a 5ba2 dfbf 412a d79e c8c6 d1bf
00000720: 5c8e bc62 ab81 e93f fc64 c267 eca8 963f
00000730: e89f c53f 0c71 e13f 0a86 497f 24ff efbf
00000740: e142 953c e4bd e9bf 9ac9 c15f 25c4 03c0
00000750: 2186 a648 173e e9bf 07d3 cb2c c871 d3bf
00000760: 19de 8875 6231 f33f 35eb e5da 2398 d0bf
00000770: 07f4 feee 1234 e93f a6df cd82 b6c4 d5bf
00000780: 52b8 70c9 1975 d1bf 9c62 f314 4318 cfbf
00000790: 7806 e978 03a5 e9bf e909 a75d 0d33 f7bf
000007a0: f46b ab5d 5699 e73f 0c2b e55b 963a e43f
000007b0: a2d0 0120 b3c3 ea3f 103a 7da1 bb79 cd3f
000007c0: d476 37a1 9a87 ff3f 7611 5acf 10d3 f2bf
000007d0: fb98 cd5c 6b46 dfbf 4d84 d53f 817b e5bf
000007e0: 242a 0ff6 67a1 febf b5e1 497c 46d8 e3bf
000007f0: d2d3 3f83 53d8 d33f 5a40 18da 6c9d e53f
