delete_later/saved_params_5000.npy (npy, 836528 bytes, 1 tensors)

array f8 [104550]
0	0xc12523c9d888ca97	-692708.9229186353
1	0xc074efabbb49a360	-334.9794266582958
2	0x40a0a705525c9346	2131.51039399431
3	0xc062faa2f82c11a2	-151.83239372832492
4	0x410e8887c05ef6fb	250128.96893113092
5	0x4055b8a37d7620ec	86.88497864280697
6	0xc02db0a1451d7c40	-14.844980392312323
7	0xc09feeeadd84b54c	-2043.7293606506018
8	0xc0479a4029789194	-47.20508306872503
9	0x40f77a0bd29e44bf	96160.73892046789
10	0x40862968151b1a4c	709.1758215062523
11	0x40fc0f2ba2f0bfa4	114930.727280377
12	0x405d130071dafbf3	116.29690214524435
13	0x407022555450154c	258.1458323601007
14	0x4105880c8d2fa8e5	176385.56893856
15	0xc0c6512974cff191	-11426.323877327874
16	0x4047a66f93fc29bc	47.30028009236
17	0xc0d1bea0f11684b4	-18170.514714841454
18	0x40d36d74a8cdab61	19893.822802941668
19	0xc04b8076c7bfc302	-55.003624886163394
20	0x40de620b7c3d8210	31112.17945802404
21	0xc062af9385d03536	-149.4867581430969
22	0xc0e32ab080b7c6ad	-39253.51571263126
23	0x4057f892ee138581	95.88396789461514
24	0xc13e26946020e424	-1975956.3755018795
25	0x411a8484957b7808	434465.14597880887
26	0xc0557c2972adbd0a	-85.9400297829308
27	0xc0d28c389354f565	-18992.88399242367
28	0xc05ece5a19b791be	-123.22424929548922
29	0x4062b00409acffc6	149.5004928950204
30	0x4176fe2d16a3b4ae	24109777.41496723
31	0x407244997382f2c5	292.2874636759919
32	0x40246f93bf0e590d	10.21792408990998
33	0xc0c3b10ce1ebe544	-10082.100644576021
34	0xc0a1f258ac7d3fe6	-2297.1731909885884
35	0x40cf67f98663e015	16079.949413761535
36	0xc0b030f7e88b0551	-4144.968392075346
37	0x40516ab376167fff	69.66720344731583
38	0xc07c6a6c1050ee5a	-454.65138274778076
39	0x40a64bb4c4155324	2853.8530584968557
40	0xc056529aa0b5044e	-89.2906877296202
41	0x40e9c97195c2a43c	52811.54953128888
42	0xc137cb540403e668	-1559380.0156845096
43	0xc0e1d986dbfc0d3e	-36556.21435358607
44	0xc0afc93917f83359	-4068.611510998028
45	0xc1463e0f0d4ca7d5	-2915358.103901843
46	0x3fd91f24f54caf9e	0.3925259013656105
47	0x41505faa8fb49a1c	4292266.245398071
48	0x403d7ebe45984ee0	29.49509081810436
49	0xc06fadf56caf536e	-253.43620905154552
50	0x413496f95758a64b	1349369.3411964353
51	0xc0588817a3da45f1	-98.12644287410491
52	0xc08a3c6ae40281b2	-839.5521927066641
53	0xc04e356ca214b925	-60.41737771999241
54	0xc10df848a12de1d1	-245513.0787007944
55	0xc06d65e8b946829c	-235.18465865870974
56	0x4038286da54734c2	24.15792305935316
57	0xc0c3588b0bcdb37a	-9905.086297714839
58	0xc01f224e2ca3a251	-7.7835013365625665
59	0x40fb518a0ec74205	111896.62860799588
60	0x4088d054734279e4	794.0412354653786
61	0xc10f88a82fa53283	-258325.02326430762
62	0x4041ff54fc6bb04d	35.994781067449914
63	0x404a31913a48e197	52.38724449690488
64	0xc1180248c2972bf6	-393362.19002979936
65	0x4087631a78595c8f	748.3879248601314
66	0x402b74d6ea3539ca	13.728202170369418
67	0xc0fbdadab9e6fc81	-114093.67038630137
68	0x40e253be768e9b45	37533.95197229696
69	0xc03763cc1ad17621	-23.389833141458556
70	0xc0dd71d4fa24871e	-30151.32776749797
71	0xc04900f5794066ce	-50.007491260953984
72	0xc0bc541529ba1970	-7252.082667952738
73	0x404dc90cb02c8f5f	59.57069971252235
74	0xc13a43b5548db536	-1721269.3302872903
75	0x412d9d452ffcb412	970402.5937248489
76	0xc01583f4e56f7f43	-5.378863892488712
77	0x40ef3bbbc28d2abe	63965.86749895428
78	0xc048a2ea1cc33e6f	-49.272769542058874
79	0x4047bac130afc590	47.45902069647411
80	0xc1625313e8486c6d	-9607327.258840764
81	0x40603ce612299ee2	129.90308483246832
82	0x405978a9895eeeb6	101.88534769316433
83	0x40d35407436e0fa4	19792.11349059608
84	0xc098d0e6f24db4ab	-1588.225533689644
85	0x40dcac0f8e4a778e	29360.243059746506
86	0x40c4b41c9321d992	10600.223240119205
87	0x40323059f54744b9	18.18887265195801
88	0x408ac038ab2d82c7	856.0276702456985
89	0xc09733e4bebc5989	-1484.9733838491104
90	0xc060b7c8982943e4	-133.74323661861047
91	0xc10601ccbda32cff	-180281.59259638932
92	0x412dcfafce6afaaa	976855.9031599362
93	0x40f186f50771c63a	71791.31431748802
94	0x40bf35f9baad0b59	7989.975504699011
95	0x41641f7c3abc959e	10550241.835520562
96	0xc04d310821776479	-58.38306063012801
97	0x4128cff38b84cd7f	813049.7724975793
98	0xc0462c826b96e0f3	-44.347730110808605
99	0xc057bae22996ba1c	-94.92005386084969
100	0x411804974278d7dc	393509.8149141052
101	0xc06cf545d0341c43	-231.66477213075459
102	0xc04787dccd403430	-47.06142583498911
103	0x40436043ebdfed17	38.75207279619115
104	0xc11eb3b5bdd60968	-503021.4353867979
105	0x406e50942f207f49	242.5180888781272
106	0x4061c383b2f77fc0	142.10982654895452
107	0x40ca067e60900bce	13324.987321859135
108	0x4044660bdee33983	40.79723726363138
109	0x41178222a9aed77f	385160.66570603097
110	0x406448ef08cefb3b	162.2791790049176
111	0x4101ea80494f0195	146768.03579522358
112	0x40515dc2009a882b	69.46496596423155
113	0x4070650b3b6830b4	262.3152422017986
114	0x412fb967485f1447	1039539.6413503968
115	0x40d886843b2f3a22	25114.066112334032
116	0x402e2f0951e7ee4f	15.091867980539204
117	0xc0f2bdfaa19ccf4c	-76767.66445618606
118	0x40e88076eb1c67c3	50179.71620006815
119	0x4031760af5b8bf3d	17.461104734043364
120	0xc0ec7ab0a63c2dc7	-58325.52029236737
121	0xc054bf8581ade6b6	-82.99252359373608
122	0x40c83320bd565b20	12390.255778116698
123	0x402956dce99002c8	12.669654177503062
124	0xc1411130cede76d2	-2237025.616164067
125	0xc0de84408f18d892	-31249.008733951086
126	0xc055eee0b87a95ac	-87.73246585818441
127	0x4078be9bbaf86620	395.91302010565596
128	0xc041085dc27f47c5	-34.06536132063733
129	0x405de3189d5a18b6	119.54837735937585
130	0x4155fb6000c819bd	5762432.012213168
131	0x4051b6a8d3c750c0	70.85405439819715
132	0x4049e1ff335c0c2a	51.76560060495861
133	0x40b6a48f88c0b3cd	5796.560680431267
134	0x40863ab6d06d536c	711.3392647305568
135	0xc0cad9c8103bab35	-13747.562995394323
136	0x40b3db5edb615078	5083.370534975191
137	0xc0359101375e298b	-21.56642480896839
138	0xc094812932d9aadd	-1312.2902330408608
139	0x40b27631b5ca62e6	4726.194180153985
140	0xc03e6cc169126760	-30.424826209061735
141	0x40f0d6d4cedbacbb	68973.3005024669
142	0xc1329c51ad9fea24	-1219665.6782213533
143	0x40d49721abfc13ce	21084.526122111645
144	0x40a268da524c1316	2356.42640912755
145	0x4152be46cc52895a	4913435.19253763
146	0x40363bc0db7fbe47	22.233411520659754
147	0x410bc5319e590945	227494.2023182606
148	0xc0545ab9c0c77b10	-81.41758746605433
149	0xc0611c6d7c0af95b	-136.88836481231087
150	0xc130e7c40e7dfa69	-1107908.0566097742
151	0xc06350680cee1d65	-154.51270147806932
152	0xc090d36bf638892a	-1076.8554314454764
153	0xc03b8362e1a3704b	-27.513227560426724
154	0xc11085e536bf2be7	-270713.3034636364
155	0x407dceb830e31247	476.91996849727406
156	0xc07ca4544185c174	-458.2705702996093
157	0x40a51c2783b6ad9b	2702.0771767699166
158	0x40432c38d8a1371e	38.34548480865327
159	0xc1071f5019e859bf	-189418.0126502048
160	0xc06f105797eb0522	-248.51069255735734
161	0x40f42c13553810b8	82625.20830542117
162	0x4049f29fcd719dc3	51.895501785732925
163	0x4061843ee583b3c8	140.13267780039882
164	0x4123866057163eef	639792.1700915972
165	0xc0f0d182adddbb6b	-68888.16744778834
166	0x401f6d27800f57bf	7.856595993935058
167	0xc0ed3e5faf0b3b3e	-59890.99011766024
168	0x40d0582db69e281c	16736.714271105928
169	0xc03ed1b244c609a9	-30.819126413678223
170	0xc0e0169ef7130301	-32948.96766043269
171	0xc04fe8dca8b01ffb	-63.8192339763627
172	0x40cd4d096e0caf58	15002.073670945756
173	0x4037dbb8060890fb	23.858276726809873
174	0x414a1504d4a739cd	3418633.661353326
175	0x4111f0417e9ef64a	293904.37365326716
176	0xc03d06c081faa693	-29.026374934858335
177	0xc0ee9c7582f9ddac	-62691.67223828597
178	0xc0505353bbd2a646	-65.30198569842568
179	0x4054796e1500f77b	81.89734387487799
180	0xc1622816acea552e	-9519285.40360507
181	0x405e4dcdcc4a0fde	121.21568591339698
182	0xc06bccb582765ecd	-222.39715693587496
183	0xc0cfa46377602409	-16200.777080552669
184	0xc09c7b5703ce90e6	-1822.8349754596652
185	0xc0e4e4a7b83db5a3	-42789.24124036289
186	0xc0b2c490d10ec85f	-4804.565689968032
187	0xc01450c1a1c8575b	-5.078863647320612
188	0xc08606fcee43a284	-704.8735013278933
189	0xc09bd18742b1f51e	-1780.3820903592928
190	0xc04ee7eda4326b7a	-61.811939739817674
191	0x4119c2f898db61fe	422078.1492743789
192	0xc123e201de49e85e	-651520.9341576209
193	0xc0ecb1b4e847e5a7	-58765.6533545957
194	0xc0b98fbdf34af0db	-6543.741993602564
195	0xc150f6402709fb0a	-4446464.609984169
196	0xc0435d90a3a133fd	-38.73097653743023
197	0xc1297998e734be27	-834764.4515742705
198	0xc029720a1b11f4c4	-12.722733350698384
199	0xc05927399a4c8130	-100.61289079161793
200	0x4131b3aebfa514c6	1160110.7486126884
201	0xc062fe6b64bf03e1	-151.95060956294677
202	0x409ba54316b85bcc	1769.3155163579968
203	0xc054f4513a4179e3	-83.81745773691323
204	0xc1062c649ee7b495	-181644.57759038048
205	0xc059f41256e0268d	-103.8136193455668
206	0x406ad8fcbcc976fd	214.78085173939317
207	0x40ae5bba5e503455	3885.864000803364
208	0xc043167ca4a4a88b	-38.175678806686015
209	0x40bff46dce4936c0	8180.428928924433
210	0x407982900537e5d4	408.160161226607
211	0xc10a413120eca790	-215078.14107638272
212	0x4057f834f25eb47c	95.87823161362206
213	0x4063dd77de445612	158.92088235232274
214	0xc11c6c3e926a436b	-465679.6429834875
215	0xc0f8c219f092b1a2	-101409.62123364818
216	0x40328816036acdd9	18.531585897040575
217	0xc0e945d92995cc72	-51758.78632631236
218	0x40e53b717e4fbb6c	43483.54666887861
219	0xc04eebd55c94608f	-61.84244878048877
220	0xc0d0f5098dd1f1fb	-17364.149281011876
221	0xc05b8d72c8a73f38	-110.21013084728918
222	0xc0e6e3c8a1f57a17	-46878.269770372826
223	0x40531a45dd94dd8c	76.41051425492896
224	0xc14562e00a359bc9	-2803136.0797610027
225	0x40e3d1970c7a4078	40588.720273137966
226	0xc039b3f0af43cc9c	-25.70289130597358
227	0x40e9d9545f4e8df0	52938.636634137365
228	0xc05dae67cd4e3d8d	-118.72508556976955
229	0x4064449441477bad	162.14309753381295
230	0x40e5bb9e7d6cc94c	44508.95281066242
231	0x406ab1b000e45037	213.55273480026673
232	0x40732359d8498cba	306.2094347832714
233	0x40d0a1e6770dd4ae	17031.60101648111
234	0x40a58da5c0fed7cc	2758.823738063662
235	0xc0a845904f9bc903	-3106.781857364929
236	0x40c6d7eb5c5e4b20	11695.838756357844
237	0x40487856db0e3619	48.94015062517082
238	0xc0aafddb611039a8	-3454.9284749098188
239	0x40a106cd129af697	2179.400532572366
240	0xc0674a4eab19f95a	-186.32210307190945
241	0x40c6c2ea389f5d37	11653.829852982059
242	0x4137105a22811697	1511514.1347822302
243	0x40ee2905ea6083f0	61768.184860475245
244	0x40bafd4a0e31f1e7	6909.289279099997
245	0x41679a083b9c373d	12374081.862819308
246	0xc02bb656e4384ac6	-13.856131679412453
247	0x4144b876be11125a	2715885.4848959865
248	0xc05b809a07b67d9b	-110.00940125295021
249	0xc0632b6b01fbfc68	-153.3568124696351
250	0x412e003e12bad240	983071.0365815833
251	0x40692456f0d2d326	201.13561288048476
252	0x4072f7afc97a3fef	303.48041675332837
253	0x40468a7edec98d4f	45.08199677316099
254	0x411b5eb5d0f554a2	448429.45406086196
255	0xc07ff09c0990b69e	-511.0380950596681
