delete_later/saved_params_10000.npy (npy, 836528 bytes, 1 tensors)

array f8 [104550]
000000 97 ca 88 d8 c9 23 25 c1 60 a3 49 bb ab ef 74 c0
       -692708.9229186353 -334.9794266582958
000010 46 93 5c 52 05 a7 a0 40 28 5c ab 6b f9 fa 62 c0
       2131.51039399431 -151.84294684857127
000020 fb f6 5e c0 87 88 0e 41 f0 ec 32 9c a0 b8 55 40
       250128.96893113092 86.88480286572644
000030 40 7c 1d 45 a1 b0 2d c0 4c b5 84 dd ea ee 9f c0
       -14.844980392312323 -2043.7293606506018
000040 9e 12 ef 28 40 9a 47 c0 17 91 f7 d0 0b 7a f7 40
       -47.205083004698494 96160.73851734806
000050 4c 1a 1b 15 68 29 86 40 04 e0 72 69 2b 0f fc 40
       709.1758215062523 114930.71324431902
000060 be 31 74 41 fc 12 5d 40 23 16 50 54 55 22 70 40
       116.29664646479702 258.14583236011293
000070 e5 a8 2f 8d 0c 88 05 41 91 f1 cf 74 29 51 c6 c0
       176385.56893856 -11426.323877327874
000080 70 0f 72 b0 35 ac 47 40 b4 84 16 f1 a0 be d1 c0
       47.34538846558905 -18170.514714841454
000090 61 ab cd a8 74 6d d3 40 71 40 98 8d 7d 80 4b c0
       19893.822802941668 -55.003831576673186
0000a0 10 82 3d 7c 0b 62 de 40 55 05 96 a5 93 af 62 c0
       31112.17945802404 -149.48677329350417
0000b0 ad c6 b7 80 b0 2a e3 c0 81 85 13 ee 92 f8 57 40
       -39253.51571263126 95.88396789461514
0000c0 24 e4 20 60 94 26 3e c1 08 78 7b 95 84 84 1a 41
       -1975956.3755018795 434465.14597880887
0000d0 87 7b 7a 64 cb 80 55 c0 65 f5 54 93 38 8c d2 c0
       -86.0124140926474 -18992.88399242367
0000e0 be 91 b7 19 5a ce 5e c0 c6 ff ac 09 04 b0 62 40
       -123.22424929548922 149.5004928950204
0000f0 ae b4 a3 16 2d fe 76 41 30 ea 83 73 99 44 72 40
       24109777.41496723 292.2874636795923
000100 fe b4 1e 60 93 6f 24 40 44 e5 eb e1 0c b1 c3 c0
       10.217921260593808 -10082.100644576021
000110 e6 3f 7d ac 58 f2 a1 c0 7d 15 5c 86 f9 67 cf 40
       -2297.1731909885884 16079.94941283273
000120 51 05 8b e8 f7 30 b0 c0 ff 7f 16 76 b3 6a 51 40
       -4144.968392075346 69.66720344731583
000130 5a ee 50 10 6c 6a 7c c0 24 53 15 c4 b4 4b a6 40
       -454.65138274778076 2853.8530584968557
000140 4e 04 b5 a0 9a 52 56 c0 3c a4 c2 95 71 c9 e9 40
       -89.2906877296202 52811.54953128888
000150 68 e6 03 04 54 cb 37 c1 3e 0d fc db 86 d9 e1 c0
       -1559380.0156845096 -36556.21435358607
000160 b8 68 8b a9 41 c9 af c0 d5 a7 4c 0d 0f 3e 46 c1
       -4068.6282466473895 -2915358.103901843
000170 17 5e 2f 3e 8b 1e d9 3f 1c 9a b4 8f aa 5f 50 41
       0.39248925278431684 4292266.245398071
000180 e0 4e 98 45 be 7e 3d 40 6e 53 af 6c f5 ad 6f c0
       29.49509081810436 -253.43620905154552
000190 4b a6 58 57 f9 96 34 41 f1 45 da a3 17 88 58 c0
       1349369.3411964353 -98.12644287410491
0001a0 b2 81 02 e4 6a 3c 8a c0 1c 7e fb 14 cb 32 4e c0
       -839.5521927066641 -60.39682256965554
0001b0 d1 e1 2d a1 48 f8 0d c1 67 6a a9 d0 e8 65 6d c0
       -245513.0787007944 -235.18466981019012
0001c0 c2 34 47 a5 6d 28 38 40 7a b3 cd 0b 8b 58 c3 c0
       24.15792305935316 -9905.086297714839
0001d0 e2 1a f1 28 4e 22 1f c0 0b 1f f7 e5 89 51 fb 40
       -7.783501281467325 111896.61864387633
0001e0 e4 79 42 73 54 d0 88 40 12 bb 55 22 a8 88 0f c1
       794.0412354653786 -258325.01676508092
0001f0 5f 50 15 82 55 ff 41 40 de 02 49 3a 91 31 4a 40
       35.99479700127335 52.38724449696541
000200 f6 2b 97 c2 48 02 18 c1 8f 5c 59 78 1a 63 87 40
       -393362.19002979936 748.3879248601314
000210 96 18 06 02 a1 6b 2b 40 81 fc e6 b9 da da fb c0
       13.710212767833848 -114093.67038630137
000220 45 9b 8e 76 be 53 e2 40 c5 ec 67 b8 b1 63 37 c0
       37533.95197229696 -23.389430547115598
000230 1e 87 24 fa d4 71 dd c0 c2 a1 da d2 f5 00 49 c0
       -30151.32776749797 -50.00750194239983
000240 70 19 ba 29 15 54 bc c0 5f 8f 2c b0 0c c9 4d 40
       -7252.082667952738 59.57069971252235
000250 36 b5 8d 54 b5 43 3a c1 12 b4 fc 2f 45 9d 2d 41
       -1721269.3302872903 970402.5937248489
000260 d3 00 fd d9 3b 8a 15 c0 be 2a 8d c2 bb 3b ef 40
       -5.384993940417377 63965.86749895428
000270 6f 3e c3 1c ea a2 48 c0 90 c5 af 30 c1 ba 47 40
       -49.272769542058874 47.45902069647411
000280 6d 6c 48 e8 13 53 62 c1 e1 14 25 12 e6 3c 60 40
       -9607327.258840764 129.90308482401363
000290 dc db 48 89 a9 78 59 40 a4 0f 6e 43 07 54 d3 40
       101.88534767260666 19792.11349059608
0002a0 ab b4 4d f2 e6 d0 98 c0 20 bd 3d 8e 0f ac dc 40
       -1588.225533689644 29360.243056711857
0002b0 92 d9 21 93 1c b4 c4 40 b9 44 47 f5 59 30 32 40
       10600.223240119205 18.18887265195801
0002c0 c7 82 2d ab 38 c0 8a 40 89 59 bc be e4 33 97 c0
       856.0276702456985 -1484.9733838491104
0002d0 e4 43 29 98 c8 b7 60 c0 ff 2c a3 bd cc 01 06 c1
       -133.74323661861047 -180281.59259638932
0002e0 aa fa 6a ce af cf 2d 41 3a c6 71 07 f5 86 f1 40
       976855.9031599362 71791.31431748802
0002f0 15 37 2b e0 f8 35 bf 40 9e 95 bc 3a 7c 1f 64 41
       7989.9721705445745 10550241.835520562
000300 8f 3f 74 f0 06 31 4d c0 7f cd 84 8b f3 cf 28 41
       -58.383024269830564 813049.7724975793
000310 f3 e0 96 6b 82 2c 46 c0 1c ba 96 29 e2 ba 57 c0
       -44.347730110808605 -94.92005386084969
000320 dc d7 78 42 97 04 18 41 43 1c 34 d0 45 f5 6c c0
       393509.8149141052 -231.66477213075459
000330 30 34 40 cd dc 87 47 c0 f2 21 10 4f 08 61 43 40
       -47.06142583498911 38.7580660656712
000340 68 09 d6 bd b5 b3 1e c1 37 42 4e 92 94 50 6e 40
       -503021.4353867979 242.5181361702432
000350 c0 7f f7 b2 83 c3 61 40 ce 0b 90 60 7e 06 ca 40
       142.10982654895452 13324.987321859135
000360 69 e1 02 df 0b 66 44 40 73 f5 5b b8 22 82 17 41
       40.797237278372286 385160.68003829493
000370 3b fb ce 08 ef 48 64 40 8a 7d 72 88 80 ea 01 41
       162.2791790049176 146768.06662462308
000380 90 6c f9 27 cb 5d 51 40 c8 35 68 3b 0b 65 70 40
       69.4655246673376 262.3152422018725
000390 47 14 5f 48 67 b9 2f 41 22 3a 2f 3b 84 86 d8 40
       1039539.6413503968 25114.066112334032
0003a0 01 56 15 21 87 34 2e 40 4c cf 9c a1 fa bd f2 c0
       15.10259345422219 -76767.66445618606
0003b0 c3 67 1c eb 76 80 e8 40 ef 8d 18 a7 12 76 31 40
       50179.71620006815 17.461222117895826
0003c0 c7 2d 3c a6 b0 7a ec c0 18 80 94 55 85 bf 54 c0
       -58325.52029236737 -82.99251307966222
0003d0 20 5b 56 bd 20 33 c8 40 cb 02 90 e9 dc 56 29 40
       12390.255778116698 12.669654177503068
0003e0 d2 76 de ce 30 11 41 c1 92 d8 18 8f 40 84 de c0
       -2237025.616164067 -31249.008733951086
0003f0 3d b3 fb 7c b9 eb 55 c0 20 66 f8 ba 9b be 78 40
       -87.68319630222409 395.91302010565596
000400 c5 47 7f c2 5d 08 41 c0 b6 18 5a 9d 18 e3 5d 40
       -34.06536132063733 119.54837735937585
000410 bd 19 c8 00 60 fb 55 41 1a d5 be d3 a8 b6 51 40
       5762432.012213168 70.85405439029674
000420 10 6a e9 46 ff e1 49 40 cd b3 c0 88 8f a4 b6 40
       51.76560293576415 5796.560680431267
000430 6c 53 6d d0 b6 3a 86 40 be f6 2e 10 c8 d9 ca c0
       711.3392647305568 -13747.562993879776
000440 78 50 61 db 5e db b3 40 8b 29 5e 37 01 91 35 c0
       5083.370534975191 -21.56642480896839
000450 dd aa d9 32 29 81 94 c0 e6 62 ca b5 31 76 b2 40
       -1312.2902330408608 4726.194180153985
000460 60 67 12 69 c1 6c 3e c0 bb ac db ce d4 d6 f0 40
       -30.424826209061735 68973.3005024669
000470 24 ea 9f ad 51 9c 32 c1 ce 13 fc ab 21 97 d4 40
       -1219665.6782213533 21084.526122111645
000480 f5 b3 21 35 da 68 a2 40 5a 89 52 cc 46 be 52 41
       2356.4261866123366 4913435.19253763
000490 f2 37 8d 60 c2 3b 36 40 45 09 59 9e 31 c5 0b 41
       22.233434710004026 227494.2023182606
0004a0 10 7b c7 c0 b9 5a 54 c0 5b f9 0a 7c 6d 1c 61 c0
       -81.41758746605433 -136.88836481231087
0004b0 69 fa 7d 0e c4 e7 30 c1 65 1d ee 0c 68 50 63 c0
       -1107908.0566097742 -154.51270147806932
0004c0 2a 89 38 f6 6b d3 90 c0 ce 32 f9 f1 b4 87 3b c0
       -1076.8554314454764 -27.530104754771678
0004d0 e7 2b bf 36 e5 85 10 c1 81 9f b5 44 b8 ce 7d 40
       -270713.3034636364 476.91998740145215
0004e0 74 c1 85 41 54 a4 7c c0 9b ad b6 83 27 1c a5 40
       -458.2705702996093 2702.0771767699166
0004f0 94 7e 24 d8 38 2c 43 40 c8 a6 e4 18 50 1f 07 c1
       38.345484750575594 -189418.0121548681
000500 22 05 eb 97 57 10 6f c0 ae 2e 9d f0 12 2c f4 40
       -248.51069255735734 82625.18374365076
000510 8d 1b 46 8e 6d f2 49 40 0b b5 83 e5 3e 84 61 40
       51.893968376381146 140.132677800408
000520 ef 3e 16 57 60 86 23 41 6b bb dd ad 82 d1 f0 c0
       639792.1700915972 -68888.16744778834
000530 e9 86 17 32 e6 5a 1f 40 3e 3b 0b af 5f 3e ed c0
       7.838768751798605 -59890.99011766024
000540 1c 28 9e b6 2d 58 d0 40 81 72 b8 ee c7 d1 3e c0
       16736.714271105928 -30.819456977873873
000550 01 03 13 f7 9e 16 e0 c0 13 dc 41 4e dc e8 4f c0
       -32948.96766043269 -63.81922319618038
000560 58 af 0c 6e 09 4d cd 40 fb 90 08 06 b8 db 37 40
       15002.073670945756 23.858276726809873
000570 cd 39 a7 d4 04 15 4a 41 4a f6 9e 7e 41 f0 11 41
       3418633.661353326 293904.37365326716
000580 08 48 88 62 d7 1c 3d c0 ac dd f9 82 75 9c ee c0
       -29.112661512634105 -62691.67223828597
000590 46 a6 d2 bb 53 53 50 c0 7b f7 00 15 6e 79 54 40
       -65.30198569842568 81.89734387487799
0005a0 2e 55 ea ac 16 28 62 c1 4e 0b 49 cc cd 4d 5e 40
       -9519285.40360507 121.21568591244906
0005b0 dc 59 48 85 b5 cc 6b c0 09 24 60 77 63 a4 cf c0
       -222.3971582806688 -16200.777080552669
0005c0 e6 90 ce 03 57 7b 9c c0 e7 8a 42 b8 a7 e4 e4 c0
       -1822.8349754596652 -42789.24124266748
0005d0 5f c8 0e d1 90 c4 b2 c0 5b 57 c8 a1 c1 50 14 c0
       -4804.565689968032 -5.078863647320612
0005e0 84 a2 43 ee fc 06 86 c0 1e f5 b1 42 87 d1 9b c0
       -704.8735013278933 -1780.3820903592928
0005f0 7a 6b 32 a4 ed e7 4e c0 fe 61 db 98 f8 c2 19 41
       -61.811939739817674 422078.1492743789
000600 5e e8 49 de 01 e2 23 c1 a7 e5 47 e8 b4 b1 ec c0
       -651520.9341576209 -58765.6533545957
000610 7f ad 00 a0 c0 8f b9 c0 0a fb 09 27 40 f6 50 c1
       -6543.752441446645 -4446464.609984169
000620 45 8d 2b ac 8e 5d 43 c0 27 be 34 e7 98 79 29 c1
       -38.730916520371956 -834764.4515742705
000630 c4 f4 11 1b 0a 72 29 c0 30 81 4c 9a 39 27 59 c0
       -12.722733350698384 -100.61289079161793
000640 c6 14 a5 bf ae b3 31 41 e1 03 bf 64 6b fe 62 c0
       1160110.7486126884 -151.95060956294677
000650 cc 5b b8 16 43 a5 9b 40 71 b2 48 b2 2f f3 54 c0
       1769.3155163579968 -83.79978615855522
000660 95 b4 e7 9e 64 2c 06 c1 9e 9d 8e b8 11 f4 59 c0
       -181644.57759038048 -103.81358159949602
000670 fd 76 c9 bc fc d8 6a 40 55 34 50 5e ba 5b ae 40
       214.78085173939317 3885.864000803364
000680 1d 02 f6 a3 7c 16 43 c0 ab b7 76 50 6a f4 bf 40
       -38.17567872535822 8180.415290279237
000690 d4 e5 37 05 90 82 79 40 c2 5d a4 20 31 41 0a c1
       408.160161226607 -215078.14093850373
0006a0 77 ce d8 f1 0f f8 57 40 7e 5e 44 de 77 dd 63 40
       95.8759731881381 158.920882352384
0006b0 6b 43 6a 92 3e 6c 1c c1 a2 b1 92 f0 19 c2 f8 c0
       -465679.6429834875 -101409.62123364818
0006c0 64 18 24 49 1a 88 32 40 72 cc 95 29 d9 45 e9 c0
       18.53165108805878 -51758.78632631236
0006d0 6c bb 4f 7e 71 3b e5 40 35 44 17 05 ca eb 4e c0
       43483.54666887861 -61.842102657661975
0006e0 fb f1 d1 8d 09 f5 d0 c0 f5 59 1f c4 72 8d 5b c0
       -17364.149281011876 -110.21012976705227
0006f0 17 7a f5 a1 c8 e3 e6 c0 8c dd 94 dd 45 1a 53 40
       -46878.269770372826 76.41051425492896
000700 c9 9b 35 0a e0 62 45 c1 78 40 7a 0c 97 d1 e3 40
       -2803136.0797610027 40588.720273137966
000710 25 98 6f 54 45 9f 39 c0 f0 8d 4e 5f 54 d9 e9 40
       -25.62215163921805 52938.636634137365
000720 8d 3d 4e cd 67 ae 5d c0 ad 7b 47 41 94 44 64 40
       -118.72508556976955 162.14309753381295
000730 4c c9 6c 7d 9e bb e5 40 85 ed e1 00 b0 b1 6a 40
       44508.95281066242 213.55273479582334
000740 5d 32 b7 cc 59 23 73 40 ae d4 0d 77 e6 a1 d0 40
       306.20942374764655 17031.60101648111
000750 cc d7 fe c0 a5 8d a5 40 b1 3b a3 4f 90 45 a8 c0
       2758.823738063662 -3106.7818575868955
000760 20 4b 5e 5c eb d7 c6 40 19 36 0e db 56 78 48 40
       11695.838756357844 48.94015062517082
000770 a8 39 10 61 db fd aa c0 97 f6 9a 12 cd 06 a1 40
       -3454.9284749098188 2179.400532572366
000780 5a f9 19 ab 4e 4a 67 c0 37 5d 9f 38 ea c2 c6 40
       -186.32210307190945 11653.829852982059
000790 97 16 81 22 5a 10 37 41 f0 83 60 ea 05 29 ee 40
       1511514.1347822302 61768.184860475245
0007a0 3c f0 99 7f 4c fd ba 40 3d 37 9c 3b 08 9a 67 41
       6909.2988220416555 12374081.862819308
0007b0 16 e6 3b dc 58 b6 2b c0 5a 12 11 be 76 b8 44 41
       -13.85614670020281 2715885.4848959865
0007c0 9b 7d b6 07 9a 80 5b c0 68 fc fb 01 6b 2b 63 c0
       -110.00940125295021 -153.3568124696351
0007d0 40 d2 ba 12 3e 00 2e 41 26 d3 d2 f0 56 24 69 40
       983071.0365815833 201.13561288048476
0007e0 ef 3f 7a c9 af f7 72 40 be 58 cb 94 69 8c 46 40
       303.48041675332837 45.09697208336864
0007f0 a2 54 f5 d0 b5 5e 1b 41 14 5e a7 51 9c f0 7f c0
       448429.45406086196 -511.0381638086121
