delete_later/saved_params_15000.npy (npy, 836528 bytes, 1 tensors)

array f8 [104550]
00000000: 97ca 88d8 c923 25c1 60a3 49bb abef 74c0
00000010: 4693 5c52 05a7 a040 3929 9519 68fb 62c0
00000020: fbf6 5ec0 8788 0e41 c1e4 d064 9eb8 5540
00000030: 407c 1d45 a1b0 2dc0 4cb5 84dd eaee 9fc0
00000040: d8a0 9b1e 409a 47c0 4567 1bd0 0b7a f740
00000050: 4c1a 1b15 6829 8640 08fa 1d24 9245 70c1
00000060: ed85 521d fc12 5d40 ad17 5054 5522 7040
00000070: e5a8 2f8d 0c88 0541 91f1 cf74 2951 c6c0
00000080: 3628 90e6 82b0 4740 b484 16f1 a0be d1c0
00000090: 61ab cda8 746d d340 f969 e209 8c80 4bc0
000000a0: 1082 3d7c 0b62 de40 8880 7fe5 93af 62c0
000000b0: adc6 b780 b02a e3c0 8185 13ee 92f8 5740
000000c0: 24e4 2060 9426 3ec1 0878 7b95 8484 1a41
000000d0: 016c 5b84 0c83 55c0 65f5 5493 388c d2c0
000000e0: be91 b719 5ace 5ec0 c6ff ac09 04b0 6240
000000f0: aeb4 a316 2dfe 7641 699f 8473 9944 7240
00000100: 8617 205f 926f 2440 44e5 ebe1 0cb1 c3c0
00000110: e63f 7dac 58f2 a1c0 ee4c 3e86 f967 cf40
00000120: 5105 8be8 f730 b0c0 ff7f 1676 b36a 5140
00000130: 5aee 5010 6c6a 7cc0 2453 15c4 b44b a640
00000140: 4e04 b5a0 9a52 56c0 3ca4 c295 71c9 e940
00000150: 68e6 0304 54cb 37c1 3e0d fcdb 86d9 e1c0
00000160: a44c 84ff 46c9 afc0 d5a7 4c0d 0f3e 46c1
00000170: f3c9 86c0 481d d93f 1c9a b48f aa5f 5041
00000180: e04e 9845 be7e 3d40 6e53 af6c f5ad 6fc0
00000190: 4ba6 5857 f996 3441 f145 daa3 1788 58c0
000001a0: b281 02e4 6a3c 8ac0 fa74 21c4 6c2f 4ec0
000001b0: d1e1 2da1 48f8 0dc1 70d2 a8e2 e865 6dc0
000001c0: c234 47a5 6d28 3840 7ab3 cd0b 8b58 c3c0
000001d0: 4780 dbe1 4d22 1fc0 2a3b b5d0 8951 fb40
000001e0: e479 4273 54d0 8840 d390 00d1 f75a 5d41
000001f0: 062e 9686 55ff 4140 5240 493a 9131 4a40
00000200: f62b 97c2 4802 18c1 8f5c 5978 1a63 8740
00000210: 7b32 c499 c264 2b40 81fc e6b9 dada fbc0
00000220: 459b 8e76 be53 e240 d974 5e4a 7963 37c0
00000230: 1e87 24fa d471 ddc0 44c6 1787 f600 49c0
00000240: 7019 ba29 1554 bcc0 5f8f 2cb0 0cc9 4d40
00000250: 36b5 8d54 b543 3ac1 12b4 fc2f 459d 2d41
00000260: 161f 02db 498d 15c0 be2a 8dc2 bb3b ef40
00000270: 6f3e c31c eaa2 48c0 90c5 af30 c1ba 4740
00000280: 6d6c 48e8 1353 62c1 c7c1 2112 e63c 6040
00000290: 6bd1 d19f a978 5940 a40f 6e43 0754 d340
000002a0: abb4 4df2 e6d0 98c0 6215 0d8e 0fac dc40
000002b0: 92d9 2193 1cb4 c440 b944 47f5 5930 3240
000002c0: c782 2dab 38c0 8a40 8959 bcbe e433 97c0
000002d0: e443 2998 c8b7 60c0 ff2c a3bd cc01 06c1
000002e0: aafa 6ace afcf 2d41 3ac6 7107 f586 f140
000002f0: 3f28 3ba5 f835 bf40 9e95 bc3a 7c1f 6441
00000300: eaab 8b70 0431 4dc0 7fcd 848b f3cf 2841
00000310: f3e0 966b 822c 46c0 1cba 9629 e2ba 57c0
00000320: dcd7 7842 9704 1841 431c 34d0 45f5 6cc0
00000330: 3034 40cd dc87 47c0 ffa3 04bc 0362 4340
00000340: 6809 d6bd b5b3 1ec1 12ba a1de 9450 6e40
00000350: c07f f7b2 83c3 6140 ce0b 9060 7e06 ca40
00000360: e47b 63e1 0b66 4440 68d8 00c0 2282 1741
00000370: 3bfb ce08 ef48 6440 b2be df54 730f 8241
00000380: 5f73 ed76 cb5d 5140 323f 683b 0b65 7040
00000390: 4714 5f48 67b9 2f41 223a 2f3b 8486 d840
000003a0: 107e 7bc9 9738 2e40 4ccf 9ca1 fabd f2c0
000003b0: c367 1ceb 7680 e840 01df 1c1b 2376 3140
000003c0: c72d 3ca6 b07a ecc0 6d6e dffc 84bf 54c0
000003d0: 205b 56bd 2033 c840 d602 90e9 dc56 2940
000003e0: d276 dece 3011 41c1 92d8 188f 4084 dec0
000003f0: 54a2 b6a8 30ea 55c0 2066 f8ba 9bbe 7840
00000400: c547 7fc2 5d08 41c0 b618 5a9d 18e3 5d40
00000410: bd19 c800 60fb 5541 879e b8d3 a8b6 5140
00000420: cfae e6a1 ffe1 4940 cdb3 c088 8fa4 b640
00000430: 6c53 6dd0 b63a 8640 d465 fe0f c8d9 cac0
00000440: 7850 61db 5edb b340 8b29 5e37 0191 35c0
00000450: ddaa d932 2981 94c0 e662 cab5 3176 b240
00000460: 6067 1269 c16c 3ec0 bbac dbce d4d6 f040
00000470: 24ea 9fad 519c 32c1 ce13 fcab 2197 d440
00000480: d280 de72 da68 a240 5a89 52cc 46be 5241
00000490: b263 c690 c53b 3640 4509 599e 31c5 0b41
000004a0: 107b c7c0 b95a 54c0 5bf9 0a7c 6d1c 61c0
000004b0: 69fa 7d0e c4e7 30c1 651d ee0c 6850 63c0
000004c0: 2a89 38f6 6bd3 90c0 588c 91fc 3c8d 3bc0
000004d0: e72b bf36 e585 10c1 51e6 f653 b8ce 7d40
000004e0: 74c1 8541 54a4 7cc0 9bad b683 271c a540
000004f0: b7a8 c6ce 382c 4340 4663 5d18 501f 07c1
00000500: 2205 eb97 5710 6fc0 65a4 1d6a 4896 7cc1
00000510: 8ec5 e2dc 6bf2 4940 64b7 83e5 3e84 6140
00000520: ef3e 1657 6086 2341 6bbb ddad 82d1 f0c0
00000530: 98d8 2970 484d 1f40 3e3b 0baf 5f3e edc0
00000540: 1c28 9eb6 2d58 d040 f580 1444 f6d1 3ec0
00000550: 0103 13f7 9e16 e0c0 4b33 5a98 dbe8 4fc0
00000560: 58af 0c6e 094d cd40 fb90 0806 b8db 3740
00000570: cd39 a7d4 0415 4a41 4af6 9e7e 41f0 1141
00000580: 4bcf eb41 9727 3dc0 acdd f982 759c eec0
00000590: 46a6 d2bb 5353 50c0 7bf7 0015 6e79 5440
000005a0: 2e55 eaac 1628 62c1 754c 48cc cd4d 5e40
000005b0: 0d72 6192 b5cc 6bc0 0924 6077 63a4 cfc0
000005c0: e690 ce03 577b 9cc0 7e04 55b8 a7e4 e4c0
000005d0: 5fc8 0ed1 90c4 b2c0 5b57 c8a1 c150 14c0
000005e0: 84a2 43ee fc06 86c0 1ef5 b142 87d1 9bc0
000005f0: 7a6b 32a4 ede7 4ec0 fe61 db98 f8c2 1941
00000600: 5ee8 49de 01e2 23c1 a7e5 47e8 b4b1 ecc0
00000610: 54cd d76e c28f b9c0 0afb 0927 40f6 50c1
00000620: 83ab ec8b 8a5d 43c0 27be 34e7 9879 29c1
00000630: c4f4 111b 0a72 29c0 3081 4c9a 3927 59c0
00000640: c614 a5bf aeb3 3141 e103 bf64 6bfe 62c0
00000650: cc5b b816 43a5 9b40 86d4 f905 bdf1 54c0
00000660: 95b4 e79e 642c 06c1 0ddf b73e 11f4 59c0
00000670: fd76 c9bc fcd8 6a40 5534 505e ba5b ae40
00000680: 9f40 d896 7c16 43c0 c514 eb7e 68f4 bf40
00000690: d4e5 3705 9082 7940 f03f b063 00a1 e6c0
000006a0: 3975 b2b2 0ef8 5740 166e 44de 77dd 6340
000006b0: 6b43 6a92 3e6c 1cc1 a2b1 92f0 19c2 f8c0
000006c0: 5af7 db62 1c88 3240 72cc 9529 d945 e9c0
000006d0: 6cbb 4f7e 713b e540 e00d 45c3 b1eb 4ec0
000006e0: fbf1 d18d 09f5 d0c0 2a2d 02bb 728d 5bc0
000006f0: 177a f5a1 c8e3 e6c0 8cdd 94dd 451a 5340
00000700: c99b 350a e062 45c1 7840 7a0c 97d1 e340
00000710: f640 545c 3695 39c0 f08d 4e5f 54d9 e940
00000720: 8d3d 4ecd 67ae 5dc0 ad7b 4741 9444 6440
00000730: 4cc9 6c7d 9ebb e540 3d2e e000 b0b1 6a40
00000740: 1519 de9f 5923 7340 aed4 0d77 e6a1 d040
00000750: ccd7 fec0 a58d a540 37b4 bf4f 9045 a8c0
00000760: 204b 5e5c ebd7 c640 1936 0edb 5678 4840
00000770: a839 1061 dbfd aac0 97f6 9a12 cd06 a140
00000780: 5af9 19ab 4e4a 67c0 375d 9f38 eac2 c640
00000790: 9716 8122 5a10 3741 f083 60ea 0529 ee40
000007a0: edc0 ffc5 4dfd ba40 3d37 9c3b 089a 6741
000007b0: d6aa a4fd 5cb6 2bc0 5a12 11be 76b8 4441
000007c0: 9b7d b607 9a80 5bc0 68fc fb01 6b2b 63c0
000007d0: 40d2 ba12 3e00 2e41 26d3 d2f0 5624 6940
000007e0: ef3f 7ac9 aff7 7240 f357 bbd0 dd8e 4640
000007f0: a254 f5d0 b55e 1b41 2ab6 2189 9cf0 7fc0
-692708.9229186353 -334.9794266582958 2131.51039399431 -151.85645751126302 250128.96893113092 86.88466759109271 -14.844980392312323 -2043.7293606506018
-47.20508177374876 96160.73830738392 709.1758215062523 -17062178.257318527 116.29663785036946 258.14583236013533 176385.56893856 -11426.323877327874
47.378994770421215 -18170.514714841454 19893.822802941668 -55.00427363925332 31112.17945802404 -149.48680376913785 -39253.51571263126 95.88396789461514
-1975956.3755018795 434465.14597880887 -86.04763897827071 -18992.88399242367 -123.22424929548922 149.5004928950204 24109777.41496723 292.28746368222943
10.217913601558177 -10082.100644576021 -2297.1731909885884 16079.949409282268 -4144.968392075346 69.66720344731583 -454.65138274778076 2853.8530584968557
-89.2906877296202 52811.54953128888 -1559380.0156845096 -36556.21435358607 -4068.638668188434 -2915358.103901843 0.39241236497323867 4292266.245398071
29.49509081810436 -253.43620905154552 1349369.3411964353 -98.12644287410491 -839.5521927066641 -60.370506779037854 -245513.0787007944 -235.18467839215327
24.15792305935316 -9905.086297714839 -7.783500222227366 111896.61345408545 794.0412354653786 7695327.265659529 35.994797538118334 52.38724449707719
-393362.19002979936 748.3879248601314 13.696797185134747 -114093.67038630137 37533.95197229696 -23.38856949621263 -30151.32776749797 -50.00752342854369
-7252.082667952738 59.57069971252235 -1721269.3302872903 970402.5937248489 -5.3879770488781755 63965.86749895428 -49.272769542058874 47.45902069647411
-9607327.258840764 129.90308481782105 101.8853530453686 19792.11349059608 -1588.225533689644 29360.243045111543 10600.223240119205 18.18887265195801
856.0276702456985 -1484.9733838491104 -133.74323661861047 -180281.59259638932 976855.9031599362 71791.31431748802 7989.97127122624 10550241.835520562
-58.38294798679256 813049.7724975793 -44.347730110808605 -94.92005386084969 393509.8149141052 -231.66477213075459 -47.06142583498911 38.76573896624176
-503021.4353867979 242.51817256533883 142.10982654895452 13324.987321859135 40.79723756177535 385160.6875032247 162.2791790049176 37875306.60925044
69.46554349125425 262.3152422020095 1039539.6413503968 25114.066112334032 15.11053304321743 -76767.66445618606 50179.71620006815 17.461473173664675
-58325.52029236737 -82.9924919301936 12390.255778116698 12.669654177503087 -2237025.616164067 -31249.008733951086 -87.65921991191254 395.91302010565596
-34.06536132063733 119.54837735937585 5762432.012213168 70.85405438451026 51.765613782537564 5796.560680431267 711.3392647305568 -13747.562988090249
5083.370534975191 -21.56642480896839 -1312.2902330408608 4726.194180153985 -30.424826209061735 68973.3005024669 -1219665.6782213533 21084.526122111645
2356.426657632089 4913435.19253763 22.2334833607053 227494.2023182606 -81.41758746605433 -136.88836481231087 -1107908.0566097742 -154.51270147806932
-1076.8554314454764 -27.55171183160232 -270713.3034636364 476.9200019497412 -458.2705702996093 2702.0771767699166 38.34548363399647 -189418.01189687307
-248.51069255735734 -29975686.632236857 51.89391671250188 140.13267780042509 639792.1700915972 -68888.16744778834 7.8254716420689405 -59890.99011766024
16736.714271105928 -30.82016396999912 -32948.96766043269 -63.819201511424204 15002.073670945756 23.858276726809873 3418633.661353326 293904.37365326716
-29.15465175635408 -62691.67223828597 -65.30198569842568 81.89734387487799 -9519285.40360507 121.21568591175476 -222.397164526294 -16200.777080552669
-1822.8349754596652 -42789.241251477026 -4804.565689968032 -5.078863647320612 -704.8735013278933 -1780.3820903592928 -61.811939739817674 422078.1492743789
-651520.9341576209 -58765.6533545957 -6543.759503829602 -4446464.609984169 -38.73079060608054 -834764.4515742705 -12.722733350698384 -100.61289079161793
1160110.7486126884 -151.95060956294677 1769.3155163579968 -83.77716206929662 -181644.57759038048 -103.81355255085164 214.78085173939317 3885.864000803364
-38.175677161781316 8180.408186619349 408.160161226607 -46344.01216900337 95.87589709689645 158.92088235249747 -465679.6429834875 -101409.62123364818
18.531683138563814 -51758.78632631236 43483.54666887861 -61.841362389295455 -17364.149281011876 -110.21012759411374 -46878.269770372826 76.41051425492896
-2803136.0797610027 40588.720273137966 -25.58286072785355 52938.636634137365 -118.72508556976955 162.14309753381295 44508.95281066242 213.55273479256894
306.20938097722075 17031.60101648111 2758.823738063662 -3106.7818584353913 11695.838756357844 48.94015062517082 -3454.9284749098188 2179.400532572366
-186.32210307190945 11653.829852982059 1511514.1347822302 61768.184860475245 6909.303802475549 12374081.862819308 -13.856178213454239 2715885.4848959865
-110.00940125295021 -153.3568124696351 983071.0365815833 201.13561288048476 303.48041675332837 45.11614426753649 448429.45406086196 -511.03821671646676
