deletelater3/saved_params_5000.npy (npy, 836528 bytes, 1 tensors)

array f8 [104550]
-1.4007354274089125 0.021635733425635503 0.34219913394040363 1.2767020501088904 -0.8401677224725391 -0.8900083601264147 -0.5991523352271587 0.17882837944154542
1.7277108177101694 -1.337619619483917 -0.7087892976885753 -1.9009454125424083 -0.8386555196505844 1.0850224294557786 0.20990352507518034 -1.5195313837842328
-0.12288184139157031 1.4460906990410853 0.24646271213816182 1.3025349044951406 -1.141736356796558 -0.6910953339883367 0.601272730437801 -0.5936681766792586
-0.8649445401826399 -2.0279424523472036 -1.3267267852756248 -1.4930208110780387 -2.195785922307361 0.9387857665149864 -0.564125082514486 0.27125976239363153
-1.1382741806622785 0.8708683234245783 -0.8653846936708584 -0.7019847967251286 0.19221552133162736 -0.16840325320698157 1.3031460454922374 -0.10281436700574563
1.0075512293428628 -0.8720102005801766 2.291188694002535 -0.03953798151328624 0.3606003011753187 0.6146746326050834 0.8890926206525053 0.2969836271160658
-1.5478727710478162 0.2905725215576046 0.5087326981685302 0.14672881081300304 0.4040126461332939 1.3082213777558656 -1.2342421042169782 0.1465339414276919
-0.9497626998187276 -0.21520324482263356 -0.32673665516483597 0.46432825213771867 -0.7973007127747465 0.32531611603158933 -0.42155226255575445 0.2440074362393002
-2.0327282038703816 -0.5362901316569687 1.3825297429741688 -1.624082162643214 0.8197209755061964 0.6656094345433488 0.07316756328262461 -0.05424974793856936
1.9076878100151613 -0.43209147909511547 -1.824121879207791 0.04052423427601464 1.0856248491190263 -0.09395115203590967 -0.2590641029332608 -0.5551073649420011
1.1006394917410285 -0.6617273330588528 -1.6614723403650284 -1.6691016947034194 0.3368732446059186 0.6295450614089543 2.015790182711512 -0.510563853597351
-0.1293981579352381 0.4484573952954133 -1.7511466027753435 2.2317579077866343 -0.4068950274337266 -0.6918787990638604 -0.7727591431212907 0.8919962115637712
-0.33243877347301637 -0.5238960254575025 -0.7229880493817852 -0.010799208433058476 -0.8088232642312025 0.8595900606927133 -1.3647601362103707 -0.24030714922163637
-1.6162242242701323 0.309478269406985 -0.05301636579398689 1.8361057169261081 0.08660178354980262 0.44636982318728585 -0.36158798083877974 1.6243254268856713
-1.6210349094256935 -0.8108961431283355 1.0405756340543357 0.551666800222968 0.7123172302044994 -0.9479080059530177 -1.4558167477971589 0.9814395708807557
0.9170191871939529 0.7343733895391692 0.7075188086754183 -0.5861357302022319 0.15949384423154597 -0.528453651388997 -0.8724211039603499 0.10220610048321611
-0.44596884526120006 0.8740582945325408 0.7198192228102549 -1.3892466972150146 -1.4357923598601683 -1.901988015011141 -1.202495122600265 -1.042906519020254
1.2446581030696475 -0.11548030658005386 -0.35536255136452405 -0.2555041423154469 0.7687595258658996 0.2488215347823652 0.23479906700416436 0.9631384134259852
-1.0863393517166593 0.05732027172858244 -0.2946651224161564 0.3819812689065417 0.7120264976663772 -0.09552567279198164 0.0061040763364018855 0.020561030837349267
-0.33402834408244547 -0.3054218240986521 -0.5625619461036607 2.565216169120876 -1.0095476522820486 -0.060724221677588903 -0.04934065413482425 -0.6573651140918383
-0.04832275163612792 0.20682757460492862 -0.09631729806698781 0.9252800658578183 -1.7554021316873365 -1.7331036928594983 0.6650163350534474 -1.3396293229902922
1.316054057794099 0.4244059793738496 -0.3407434668594808 -0.5711411942230997 1.0470781233761095 -0.979249774421598 -3.39977985406877 1.350630889890779
-0.8641412327106734 -0.37897765097405495 -0.8277815117396861 0.0846653550293239 0.5976491382366305 0.31791759196042946 1.4486823641876263 -0.47280431863359945
1.861308303500201 -0.5687997176006615 -0.47670517734070444 -2.3281000412155524 -0.08658754343477178 1.033047760256004 1.0402767423092347 -0.5792335890320149
-1.2796684812354364 -0.2832770912328772 0.19001168000559635 -0.1503656146028259 0.11261280208481582 0.20869879682098427 0.930171353316369 -1.212671793799677
2.1874586844530532 -1.4215650717833757 0.27875119001718135 -1.4756416366716856 0.2461705474378721 -0.10377713551792699 0.05891578155513894 1.5665112508819286
-0.21425189660653748 1.1785532848909182 -0.3504699444112524 0.026617336223663565 1.1129392639241467 1.6601693850784869 -0.41982219547277666 -0.3093823759924538
1.1806781365868015 0.9750097701879191 0.15623513399509853 0.27727534447077484 1.1771816067542218 0.6149519620406361 -0.22494268767325615 -0.16659337157032744
-0.48462495345551143 0.8741523220006034 -0.35159747933527846 -0.3679012446181753 0.7504879458195801 -0.029772335993589274 0.54990115622443 -0.9618892733367546
-0.8021508811023155 -2.681729617594545 -0.9178493813090112 -0.10534867452693326 1.1793678435664012 -0.20635506541907897 0.8044962375581629 -0.3637633424096736
-0.24865341788001039 -0.04103805190901041 -0.8430881092087807 -1.429515954520225 0.7854415244585999 0.7531211735749653 0.8072003283714019 0.304642610124428
1.9820691804012371 -1.2171215105947246 -0.6535973399377129 -0.6466051465350408 -1.9864085212581195 -0.5145136713797414 0.4030151066689174 0.5066396395167482
00000000: 271e 318d 6969 f6bf dcca f37d ad27 963f
00000010: 7196 3f32 97e6 d53f eb42 ff20 5f6d f43f
00000020: 5b94 656b a7e2 eabf f71a fdcf f27a ecbf
00000030: f5ec a384 412c e3bf ad28 a62c d9e3 c63f
00000040: 662b 3019 b4a4 fb3f 01be 82d4 e366 f5bf
00000050: bf78 aae4 66ae e6bf 2c9d a5bc 456a febf
00000060: eb4a b019 44d6 eabf 4b06 9f7a 405c f13f
00000070: 7eaa c163 1ede ca3f 1d95 e923 0050 f8bf
00000080: c78e 0c32 2f75 bfbf 5ce6 3600 3023 f73f
00000090: 1b8f 2814 178c cf3f 2448 0bd7 2ed7 f43f
000000a0: c686 9157 8d44 f2bf 43bd 3cf6 731d e6bf
000000b0: 939f 264f a03d e33f 7e6d 7067 54ff e2bf
000000c0: b405 1e2c a0ad ebbf 9e02 78e4 3939 00c0
000000d0: c0c6 97dd 453a f5bf bb3d 3dca 69e3 f7bf
000000e0: 569e aa35 f890 01c0 a43a a472 880a ee3f
000000f0: bb18 880b 500d e2bf 61e3 0ce8 515c d13f
00000100: fe35 bdfc 5e36 f2bf a763 073f 27de eb3f
00000110: 61cf b83d 3bb1 ebbf 0528 07d2 a876 e6bf
00000120: 3593 f3a8 849a c83f ec30 88e0 3c8e c5bf
00000130: 70d0 f4aa afd9 f43f 173f d9d7 0a52 babf
00000140: b227 b109 ee1e f03f f6a5 a8ef 81e7 ebbf
00000150: 8fa5 edbc 5a54 0240 2f4d 1983 523e a4bf
00000160: 9872 1e49 1314 d73f 5c07 9722 6aab e33f
00000170: 8128 1a5e 7273 ec3f 314d 7a9d c701 d33f
00000180: ea4e 203d 16c4 f8bf d631 4d7d bd98 d23f
00000190: 0745 a1cb 8947 e03f 2452 e979 02c8 c23f
000001a0: da06 94db 57db d93f 693b 168a 79ee f43f
000001b0: 9054 0fa6 74bf f3bf 1bcc 17cb 9fc1 c23f
000001c0: c4d3 d5be 7464 eebf 31ce 40a9 c78b cbbf
000001d0: f697 15dc 40e9 d4bf fe94 62d8 8db7 dd3f
000001e0: a63d cec8 7c83 e9bf 2bea cdaf fad1 d43f
000001f0: 55d5 4e57 b6fa dabf f475 50bb a23b cf3f
00000200: aa3d 2a01 0743 00c0 7d4b 14ec 4929 e1bf
00000210: 3624 fd81 d71e f63f e81c e993 3dfc f9bf
00000220: 5b9e b47b 273b ea3f 40ba 2828 ac4c e53f
00000230: 3648 6d03 1cbb b23f 8abf 6c7a 9fc6 abbf
00000240: 3ee3 2fa7 e385 fe3f a200 e604 63a7 dbbf
00000250: 30d9 716c 9a2f fdbf c764 d2a9 97bf a43f
00000260: f60e 6b29 b85e f13f fa6e 6ac5 2e0d b8bf
00000270: a59e 6a9a 8194 d0bf 6c3a 4685 70c3 e1bf
00000280: a46b db27 389c f13f 236d cbcc de2c e5bf
00000290: d838 5105 6495 fabf 9730 87fa a3b4 fabf
000002a0: 84b5 1ecc 548f d53f 3d83 43af 3b25 e43f
000002b0: 1fc0 729a 5620 0040 250d b701 8a56 e0bf
000002c0: 774b 3f6c 1e90 c0bf 7a5c 9ca5 86b3 dc3f
000002d0: e3be d64c b204 fcbf 8a43 d4e3 a3da 0140
000002e0: 7be7 ee70 910a dabf 18cd d801 df23 e6bf
000002f0: 7982 ec61 71ba e8bf 3c50 9aa3 3b8b ec3f
00000300: 154b ff46 ad46 d5bf f804 fb98 c1c3 e0bf
00000310: 93cb 6fd5 b722 e7bf 3c65 5738 e51d 86bf
00000320: 50be 8353 e1e1 e9bf 1b8a d403 c381 eb3f
00000330: 5d87 7eb9 0ed6 f5bf 1e72 7379 62c2 cebf
00000340: 19e4 a3ee 0ddc f9bf 4e3e 7bf1 7dce d33f
00000350: 29d4 790a f624 abbf ea23 6363 b060 fd3f
00000360: f725 1fd4 882b b63f 3baf 20bc 5291 dc3f
00000370: 2a12 15ea 4124 d7bf 2b90 a8a8 3cfd f93f
00000380: d785 1a4d c2ef f9bf 200a e677 dcf2 e9bf
00000390: 0472 d4a2 32a6 f03f 41e4 2722 41a7 e13f
000003a0: 4f61 0381 4dcb e63f c1e9 a52b 4355 eebf
000003b0: 4420 8c80 064b f7bf 1edc 7df5 f367 ef3f
000003c0: 53ae 599f 3858 ed3f e5f2 639f fc7f e73f
000003d0: 0e1b 127c fea3 e63f 928a 07b8 9fc1 e2bf
000003e0: b3a3 7156 4b6a c43f 625c c5a1 17e9 e0bf
000003f0: 8932 bba9 dfea ebbf 39f0 06d3 2d2a ba3f
00000400: 9ca1 5be9 c08a dcbf d412 ba19 49f8 eb3f
00000410: e011 a052 c208 e73f 00d5 a9be 5a3a f6bf
00000420: 2b23 d768 01f9 f6bf 7cb5 1dfc 8a6e febf
00000430: b0ae 9286 6b3d f3bf 95a2 ffbe beaf f0bf
00000440: 252b 769d 1eea f33f 13e8 170c 1e90 bdbf
00000450: 2d5c 1592 42be d6bf 2331 cf0b 2e5a d0bf
00000460: e1a3 c293 ad99 e83f f723 3751 62d9 cf3f
00000470: 7604 f554 e50d ce3f 2bf3 65a6 07d2 ee3f
00000480: bdb1 3f5f a561 f1bf 6fb6 f128 1559 ad3f
00000490: 8e26 031a cbdb d2bf ead7 6890 6172 d83f
000004a0: af99 2bcb ebc8 e63f c7e8 91d8 5e74 b8bf
000004b0: 984c cb83 9600 793f dce7 126c f30d 953f
000004c0: 555a 716b b860 d5bf 8b41 7ffa 078c d3bf
000004d0: a7a8 0fe9 8100 e2bf 465b 0c0e 9085 0440
000004e0: 31e1 6470 1b27 f0bf 1950 5cc4 3e17 afbf
000004f0: 60a0 be9f 2d43 a9bf bdc8 5190 2209 e5bf
00000500: d71b dc7b c2bd a8bf e069 6b72 5379 ca3f
00000510: b59e 3c1d 40a8 b8bf 7500 d0f0 e49b ed3f
00000520: 0fd0 ae8b 2016 fcbf b388 16f0 caba fbbf
00000530: dd87 4b56 d047 e53f 4618 3028 1f6f f5bf
00000540: 65e6 1fb3 8e0e f53f 5ecd 68b2 7729 db3f
00000550: 232d 9faf bdce d5bf 68c5 d2e5 c946 e2bf
00000560: 7d1e 84fd d4c0 f03f 4e32 789f 0356 efbf
00000570: a499 b6c7 bf32 0bc0 bac5 d022 2f9c f53f
00000580: 4cc2 b383 0ba7 ebbf 4f4d 367a 2b41 d8bf
00000590: f8f8 24a7 2f7d eabf 5e86 f4f2 a0ac b53f
000005a0: 66af e615 f11f e33f 6ec2 1207 c358 d43f
000005b0: 23a5 078f cd2d f73f 7f16 7c0b 6d42 debf
000005c0: dbe7 3437 ebc7 fd3f 3d34 2277 9b33 e2bf
000005d0: fbc7 a06e 5682 debf 47b2 16ea f29f 02c0
000005e0: 4d17 4beb 992a b6bf e116 9816 5d87 f03f
000005f0: 0f1f b039 f9a4 f03f 0364 34e1 1489 e2bf
00000600: 100d 4aa8 8579 f4bf 1f47 a33c 3621 d2bf
00000610: edb3 bd7f 4d52 c83f f3be 9432 2e3f c3bf
00000620: 3fb1 104e 31d4 bc3f 3dc4 8765 a4b6 ca3f
00000630: 8b6f c5b6 f6c3 ed3f 986b f289 1a67 f3bf
00000640: cb9d b856 ea7f 0140 bb20 4704 bbbe f6bf
00000650: 7112 363b 0fd7 d13f d0ee a167 3a9c f7bf
00000660: 3ef6 3d39 8482 cf3f 173f 1f6b 2391 babf
00000670: a9c5 fe95 352a ae3f b7a9 f519 6e10 f93f
00000680: 82f9 832c 9b6c cbbf a532 73b0 5adb f23f
00000690: 8b8b 5e7d 196e d6bf 9c5d 5932 9341 9b3f
000006a0: fdd0 cf66 99ce f13f 73b8 ebc5 0d90 fa3f
000006b0: 1231 ece9 5dde dabf d62a b6bc ebcc d3bf
000006c0: 6be1 fbc1 0ee4 f23f 539a 87b0 4733 ef3f
000006d0: 4a60 7f4b 83ff c33f 9e4d 1f16 e1be d13f
000006e0: d364 6761 bcd5 f23f 086b b2bc afad e33f
000006f0: 12f7 8307 ecca ccbf cafd 4f7d ee52 c5bf
00000700: 35af 7a61 1804 dfbf b7e1 564a 0ef9 eb3f
00000710: b777 c6b6 9280 d6bf 90bc 72a9 b18b d7bf
00000720: 4ccb ea4b ff03 e83f 7705 aca5 a37c 9ebf
00000730: 4887 404f ca98 e13f 9a58 6b03 ccc7 eebf
00000740: 4e58 1953 38ab e9bf e843 62a8 2e74 05c0
00000750: 7e08 6caa 055f edbf 0527 c577 21f8 babf
00000760: d625 e1d0 b0de f23f 9360 abc0 d769 cabf
00000770: c927 c2e4 6ebe e93f 5186 c80a e647 d7bf
00000780: 78a8 ea0c e0d3 cfbf cb76 ae85 f002 a5bf
00000790: 9257 16ea 93fa eabf b864 1c1f 4cdf f6bf
000007a0: d20a 8f43 5622 e93f 69bf 4d93 9119 e83f
000007b0: c79e 75c8 95d4 e93f b5f5 dcb7 437f d33f
000007c0: b4b9 432c 8eb6 ff3f 0933 b467 5479 f3bf
000007d0: 4e1f f9f7 44ea e4bf 9d62 b946 fdb0 e4bf
000007e0: 1dca 344d 54c8 ffbf da77 fd5f e576 e0bf
000007f0: 04f7 bbdf ffca d93f fb9c 5255 6436 e03f
