delete_later2/saved_params_20000.npy (npy, 836528 bytes, 1 tensors)

array f8 [104550]
00000000: 1b9d e656 2ea3 f6bf edf0 7b08 4727 ad3f
00000010: d87a a2b1 4ce7 d73f ac99 4039 7074 f43f
00000020: 9596 1f6f 1005 e8bf 5ca9 8cfc f700 f0bf
00000030: 4de0 ddf3 af6a e5bf 442b 7001 91b3 c73f
00000040: b266 e267 5c23 f93f 4ef6 4a52 6c8c f3bf
00000050: afc7 120e 7a59 e5bf 520a aa97 0e40 fabf
00000060: b0a3 1bd5 901c e7bf 838e 4ac9 45a1 f23f
00000070: 26f9 3daa f825 c03f e3f8 cb91 318c f8bf
00000080: 3c67 95de 1c4c b3bf ce74 390e 3fc8 f53f
00000090: 3076 58d5 6823 ca3f 688a 2bc7 98e6 f33f
000000a0: 7ff7 fdc4 1b34 f2bf c86d d679 8cd5 e3bf
000000b0: fdc2 43cf 89d9 e43f b446 3a1a 0b4d d3bf
000000c0: 9f8c 6233 b22b e9bf 0fd2 6e6e cf7f febf
000000d0: bc78 cb08 95a6 f2bf beb3 5390 1322 f7bf
000000e0: ed02 6219 bcdb 00c0 d460 3ba1 369c ed3f
000000f0: 8816 3584 0ccb e1bf e428 4b60 729a d53f
00000100: 079a 4691 1144 f1bf fb4b 95d8 be7d e33f
00000110: 43af aa6f 71e4 ecbf e5f0 7f1b b41a e4bf
00000120: c30f f7da 797e cf3f 7e20 4f1e 7f68 c3bf
00000130: 76a5 5a07 21cd f53f b422 06c4 9f32 cabf
00000140: 9ad4 1dd5 5d1a ef3f 2cc8 e119 2dc4 ecbf
00000150: 67d1 022e a58b 0240 c854 0ed6 84c5 89bf
00000160: 934c 7f8f 42be d63f 41a8 b062 b050 e53f
00000170: 7a80 4557 f260 ef3f 9b9e 1045 2095 ce3f
00000180: c3d8 01d1 4759 f8bf e95a b4ef 56ec d03f
00000190: 6106 da2f d81c d73f 35ce 23d5 f8d0 b83f
000001a0: 9030 b259 ae1e da3f c1c3 70de a599 f33f
000001b0: 8da8 28ee 2620 f5bf c4c2 b7ba 351f d93f
000001c0: 54ed e2f7 7136 efbf 7edb 6bca 21ff cebf
000001d0: 1450 7dd0 fddd dabf eab3 3dca 7063 d73f
000001e0: f655 7885 e96c ecbf a00d d169 1506 d33f
000001f0: dd46 7d84 9d81 dcbf d8a4 2c63 a13a cc3f
00000200: 8b8e 2b7b e184 febf d40b 3c21 0da5 dfbf
00000210: 8724 b894 be59 f43f 7f77 20d9 a57a f9bf
00000220: bde1 ce36 4d05 e53f 1b07 7481 c1e6 e43f
00000230: 0b1d d7a2 f41d c63f 1acf d372 6bd6 6d3f
00000240: 33ba faa3 b626 fd3f 3c08 2ce0 e1af debf
00000250: 8e4e ae94 53ae fdbf a054 9f5e 7c61 b73f
00000260: 6984 6cf0 73e0 ef3f 9c5e 5bdb 14da cbbf
00000270: e7a8 3032 b2e9 d0bf 4ac8 5454 9f08 e1bf
00000280: 0d2f afb1 eac3 f23f 451f 6064 60f0 e5bf
00000290: 3f9f 628a 63b2 fabf 964f a00c ddab fabf
000002a0: b92b 8456 8ebb d13f 0d24 7937 0ca6 e23f
000002b0: 2a77 5fe5 b40b 0040 2acd dea1 7b73 dfbf
000002c0: 45d2 2d96 4a4e babf cd46 4e98 a0ee db3f
000002d0: b9d7 6bc9 fbf5 fbbf d3b9 037f ef9c 0040
000002e0: 784c 0f1f 1468 dbbf 580b aa82 4756 e7bf
000002f0: a11b 17de 16a9 e8bf 503f beba bac2 eb3f
00000300: 1c13 382d bb5e d9bf 4cc7 7e0b 05ff e0bf
00000310: b3ea 8dd4 73b4 e5bf af9f 1b35 f85e aabf
00000320: 3127 f3c6 069c e5bf 1279 9a7f 0dcf e83f
00000330: 473c 6ead 7b73 f5bf 6b02 7b49 cbc4 d7bf
00000340: b436 c103 52bc f8bf 2757 09e0 3cf5 92bf
00000350: 99e2 330c f1e2 b7bf e4d8 8168 b7eb fa3f
00000360: ab0c ea01 52dc c13f da73 72c7 85c5 da3f
00000370: 377c 2608 9db1 d2bf f2e7 60cc c597 f83f
00000380: 8177 9bc5 a232 fbbf 9687 cf99 3e99 eebf
00000390: c30f 06af 2ef2 ec3f 8487 88fb 5f49 e03f
000003a0: 767e f587 c7c0 e93f da47 a5e8 ad6e efbf
000003b0: 1e0a 260c 31eb f7bf 6f46 1f33 1f01 ee3f
000003c0: 2d66 cdc0 5c30 ea3f d865 d7ec a550 e53f
000003d0: 92d0 8ca8 16d9 e63f de30 0bd2 1ac9 eabf
000003e0: 9e00 8829 6ca9 c33f bb1c a1ac 9d7c e3bf
000003f0: 5e86 1e6b 521d f0bf 81c0 6a78 b9e4 c93f
00000400: c6ac dc90 8373 e1bf e1b7 25e1 a541 e93f
00000410: 98b3 f359 d2c5 e53f 2291 9f78 f2ab f6bf
00000420: e014 6745 ac44 f8bf 59dd fb7a 97cd fbbf
00000430: 35a7 786c 9408 f3bf 1b30 2ae2 0abe f1bf
00000440: 0dd9 4224 1de7 f23f 2635 8843 aa17 c9bf
00000450: c089 44fa 7f1f dbbf 6486 523b d770 cebf
00000460: 9083 2408 cf51 e73f edda 7831 dc6b c73f
00000470: dbf7 24da 5801 c43f 04d8 4b3b 7d75 ec3f
00000480: 0849 ef20 5f10 f2bf bcb3 94da 892c b0bf
00000490: 1610 bfa3 2854 d8bf 079b f392 61a0 d33f
000004a0: 94d7 e4d0 1326 e53f 300c 0cdd 572a b7bf
000004b0: 1275 df7a baa9 92bf 78d1 80b4 7df7 a03f
000004c0: 3d36 4192 2452 d5bf 2635 6641 d4da d2bf
000004d0: a2e6 9985 a36c e3bf b1df 93e4 ebe7 0540
000004e0: 064a 5602 6a2c edbf eac1 30ef 724a b5bf
000004f0: 6d2e 1461 38ae b23f 301a a390 b753 e3bf
00000500: 4a67 5106 3548 b4bf 846d a70f 8bf3 d33f
00000510: 8f76 67e2 8d0b a53f 6f72 3942 7c9e ed3f
00000520: 2eae 0c01 a877 f9bf e722 9330 ba80 fcbf
00000530: 2648 baad dddd e53f 4368 48bf a808 f6bf
00000540: a108 8783 330f f23f 92d7 c9f5 897f dc3f
00000550: dd67 aad5 26f6 d6bf a435 e2b3 7778 dabf
00000560: 409f 54fb 517c f13f 6d33 98d4 4c28 ecbf
00000570: 0061 0aad cbac 0ac0 843a f095 c4b7 f53f
00000580: 792a 846f a745 e2bf 2273 a51b cbad d8bf
00000590: b18f c50b b4a0 ecbf 2e71 7ee8 1f98 923f
000005a0: 7087 9571 cb01 e53f fcf6 c206 cd4e d13f
000005b0: 1bc3 c437 5394 f53f cde9 f964 1d56 d3bf
000005c0: 4afd 8d17 3e99 fa3f 3144 623f 3dd4 dfbf
000005d0: 2e77 c288 77db dcbf 91c3 21a4 ca35 02c0
000005e0: 4d97 7c20 cdd8 a7bf 1f71 8faf 316d ec3f
000005f0: 791c a31c 8368 f13f 5633 3d36 d8af e0bf
00000600: ab28 0d5c 14ed f4bf 0598 e0cf f283 d1bf
00000610: 5bfb 43bb 8d81 c83f 93e9 a9c1 eedc bebf
00000620: 4aae 7405 f07e b0bf 1438 a491 bd04 c73f
00000630: 0802 4d4d f476 ee3f af64 cf2f 257f f3bf
00000640: 2b9f 2f6c 67a3 ff3f 8783 7fc1 5c8c f7bf
00000650: f1c3 67c7 c747 d63f 7f31 168c 57e1 f7bf
00000660: 55df 95d0 801d cf3f 6b48 a1fc b393 cebf
00000670: 3354 9265 df74 a23f 53ff a47a 2a22 f73f
00000680: b23c e659 a2a9 c6bf 28f0 029d ff30 f03f
00000690: 799c 933c f503 d8bf 558f 6d79 8fac 843f
000006a0: 29d7 8f22 66ab ee3f 3c53 1b8b 0998 fa3f
000006b0: 2ec0 c719 80ae e1bf a28a 2498 4975 d5bf
000006c0: daed 157f d0af f23f f546 a974 60be ee3f
000006d0: 72fd 2f44 7f55 a7bf 5b67 10f6 f4c6 c83f
000006e0: 5cdc 597a 47a9 f23f aafa 29e2 e2d6 e23f
000006f0: 9dba ee17 9bb0 d3bf 3e48 f8be e0df c8bf
00000700: f28a 3f0f 219f e0bf 610d 08b9 790b e83f
00000710: 07ff 799f 0018 e0bf 5406 a3a4 cdcd d5bf
00000720: f1b6 bbb7 debf e93f 975b 00b2 db72 733f
00000730: cf99 4f61 776c e13f c2ff b236 bcbd efbf
00000740: 2695 6456 7050 e9bf 3e16 658f 328d 04c0
00000750: 9bd4 10f7 2bec e9bf 8fff 6413 a06b d0bf
00000760: dd52 5353 79ea f23f 6a57 221d 6441 d0bf
00000770: 1de2 d5f9 cb88 e93f f508 9039 7b8f d4bf
00000780: dc21 d42e 9a64 d2bf 7307 6a6c d3fd cbbf
00000790: 784a 0b4f 51a7 eabf eefd 8921 2519 f7bf
000007a0: ec2b d2f9 2616 e83f 5226 e88f c14f e53f
000007b0: 761a 6ec9 5eab ea3f 431b ef3f 7221 cf3f
000007c0: befb 9c7d f899 ff3f 985c 0510 8ebc f2bf
000007d0: e9d8 27d5 275e e0bf b0cc 9ab9 806a e5bf
000007e0: dde8 df27 4cd9 febf ac05 d0c6 b9b3 e2bf
000007f0: a0bf 6e98 1e7c d53f 28c7 8582 5808 e43f
-1.4148391146243913 0.056940288339292745 0.3734924063409557 1.2784273373050423 -0.7506181879404773 -1.0002364983762027 -0.6692733538648185 0.18516743250105538
1.5711330469115805 -1.2217829908908189 -0.6671724581594755 -1.640638916433677 -0.7222370302453012 1.1643731940211246 0.1261587935695811 -1.5342269606767835
-0.07538013872308807 1.3613882594720965 0.20420561234725332 1.243798044212463 -1.1377217955591445 -0.6198179607048866 0.6515549705637508 -0.3015773540620146
-0.7865839961636033 -1.90620368135308 -1.1656694739863687 -1.4458194387218408 -2.1072923644099917 0.9253190182744455 -0.5560362417388243 0.33755168346091424
-1.0791183161578617 0.609099791540188 -0.9028861218443825 -0.6282597100357888 0.24604724113134865 -0.1516264818185426 1.3625803267735512 -0.2046699244640614
0.971968570941175 -0.8989472871310276 2.3181861490831355 -0.01258376863715184 0.35536254895596037 0.666099732164419 0.9805843071481057 0.23892596599875024
-1.5217970051140106 0.26442502411502616 0.361135527353417 0.0969386597023963 0.40812262305622315 1.2250117005425951 -1.320349626834772 0.39252989992295917
-0.9753961411983405 -0.24216101058820166 -0.41979928360274354 0.3654443717012429 -0.8882949454152242 0.29724631627706266 -0.4454110902635032 0.22053925840854194
-1.907441598065733 -0.4944489311748701 1.27191026776771 -1.5924433213726557 0.6568971701117828 0.6531684425719705 0.17278917266069302 0.003642282352865578
1.8219515233464676 -0.47948500530049265 -1.8550601775977245 0.09133126554600546 0.9961490340975959 -0.2175928183630632 -0.26426367665648204 -0.5323025366872198
1.1728312435906816 -0.6855928383310831 -1.6685519605325252 -1.6669588559352397 0.2770725102315584 0.5827694972477971 2.0057161254652742 -0.49142351920746086
-0.10275713125685922 0.4364396560059561 -1.7475545757310853 2.0766286776554153 -0.4282274535482382 -0.729282145694337 -0.7706407869053359 0.8675206801726549
-0.3964069310753062 -0.5311303352848227 -0.6782778884365456 -0.05150581024446354 -0.6752962003458604 0.7752749912504291 -1.3406941198952766 -0.3713863580306113
-1.5459766527814454 -0.01851363294038957 -0.09330660388867286 1.6825479585946193 0.13953614324063798 0.4183058212018388 -0.29209066196375794 1.5370538695847213
-1.6998622626337865 -0.9562066082109932 0.9045632761412822 0.5089569008598436 0.8047826438377814 -0.9822606605396189 -1.4949198221735354 0.9376369474868634
0.8184036031408987 0.6660947442825842 0.7140000621789275 -0.837048921815519 0.1536078646458962 -0.6089619037310493 -1.0071586784692026 0.20229261760460207
-0.5453508214317473 0.7892636678131987 0.680398154914303 -1.4169792854164105 -1.5167658530274863 -1.7376932910973066 -1.1895946728859148 -1.1088970980226864
1.1814242760133908 -0.19603470132316508 -0.42379760208327966 -0.2378186263713814 0.728736415771083 0.18297912994031354 0.15629110957701084 0.8893419416551755
-1.1289969717514072 -0.0631796034474083 -0.38013664236882627 0.30666388846150067 0.6608981208762423 -0.09048985621124994 -0.01822558760601562 0.03313820675285489
-0.33313860209168294 -0.294606269709066 -0.6070115670583685 2.738242898714781 -0.9116716428418961 -0.0831672510109979 0.07297088975990969 -0.603969366545078
-0.07922679332969298 0.3117396977301825 0.04110377682421273 0.925596360535179 -1.5917129555699705 -1.7814275643779014 0.6833332436674524 -1.3771140548692677
1.1287112367431649 0.4452843570974149 -0.35877390733514664 -0.41360275809059943 1.092851621398907 -0.8799194481122022 -3.33437285602497 1.357365213105056
-0.571002691083165 -0.38560750675041977 -0.8946171026150208 0.018158434453298948 0.6564690798224841 0.270434624293429 1.348712175222494 -0.30213103161773064
1.662412731180512 -0.4973290556891384 -0.45089519839699477 -2.2762654135517058 -0.04657593747678721 0.8883293560898301 1.0880156630171582 -0.5214654025418024
-1.3078807445295222 -0.2736784963657331 0.19145366329027066 -0.1205586645900552 -0.0644369138068949 0.17983216868782448 0.9520207891255845 -1.2185413234313207
1.9773935533539297 -1.4717681463737067 0.34813112710167987 -1.4925151321541248 0.24308786568485155 -0.23888254008722085 0.03604791750800764 1.445841292457733
-0.17705182447068563 1.0119625218640156 -0.37524157443699085 0.010094757931888113 0.958422725204149 1.6621184762818322 -0.5525513175507564 -0.3352836595314931
1.167923447063791 0.9607393530406784 -0.045574166368164706 0.19357168211791528 1.1663279322945277 0.5887312333359962 -0.30765416466867085 -0.19433221173000165
-0.5194249437157323 0.7514008153815831 -0.5029299845482179 -0.34068623616994853 0.804671629766487 0.004748209175906923 0.5444905186275778 -0.9919110363334698
-0.7910691916810364 -2.5689440920566815 -0.8100795579436125 -0.25656892675396475 1.1822446112538991 -0.25399115414744833 0.7979488257979629 -0.3212574064383625
-0.28739027569875275 -0.21868365091000505 -0.8329245132284333 -1.4436389265173335 0.7527041320148533 0.6659858523064008 0.8334192213231535 0.24320819970872706
1.9750904948011647 -1.1710339189355974 -0.511493603057514 -0.6692508339969176 -1.9280511434176824 -0.5844391711290675 0.3357006538963052 0.626018767287154
