delete_later2/saved_params_35000.npy (npy, 836528 bytes, 1 tensors)

array f8 [104550]
00000000: ee26 51e8 1349 f6bf e4af f460 84f1 ae3f
00000010: e267 c9e7 8402 d83f a303 08e6 9f61 f43f
00000020: d5e7 5ca4 0723 e7bf 0a2e cabb 3194 f0bf
00000030: 4c54 0856 136c e5bf 3469 1c2e 0ad5 c73f
00000040: 99ed e4c5 9375 f83f d6b0 0154 b9f6 f2bf
00000050: 9407 3b3a f5e2 e4bf 37bb b0e5 6905 f8bf
00000060: bb4a 9b9f 0d4b e6bf 2fba 44d0 99bd f23f
00000070: 9380 4d7d 20f9 c03f c35c aba6 ee73 f8bf
00000080: badf 5885 355b 993f 053c 05a2 ad87 f53f
00000090: 86a6 e539 e030 cd3f 7adc baba 65f9 f33f
000000a0: 63b9 3418 7b43 f2bf 8883 f729 4695 e2bf
000000b0: 3049 8c72 3c8d e53f daed b023 6739 c9bf
000000c0: 737a 2a27 ac84 e8bf d500 299b c0cc fdbf
000000d0: 0e6f c7e6 be65 f1bf cd69 b80b a62d f6bf
000000e0: c184 72c0 5aa9 00c0 7f88 8207 5b18 ed3f
000000f0: 86e5 44ff 3945 e1bf 8955 0686 d466 d53f
00000100: 5b86 5b52 fe20 f1bf 9fa7 a85e ed28 e13f
00000110: 2337 fb47 2a51 edbf e2c0 1598 6d01 e4bf
00000120: c7b7 398d 96b4 ce3f 719e fbb3 6af9 c2bf
00000130: b7fa d1b3 83a3 f53f fec3 fb58 c3a1 cabf
00000140: e7f4 0d02 9d0c ef3f d726 4d6f ac32 ecbf
00000150: 7fab 7582 d5ad 0240 d86c e21b d510 84bf
00000160: 4d56 364a 33c1 d63f e236 4546 b707 e63f
00000170: c38f a53b 8e17 f03f af4d 8740 e765 cc3f
00000180: 22ba 4e50 eb0b f8bf 0d67 6d0f f96a d03f
00000190: 5165 995a 560d d23f 5df8 c6a6 e91d b83f
000001a0: b6b9 70a5 c81f da3f 840a 2af6 c01b f33f
000001b0: 5d1b e1ce ed66 f5bf db54 5aa5 bc97 dc3f
000001c0: 720a 3192 9e05 efbf 862a e427 bb05 cfbf
000001d0: 0344 c095 463d debf dc84 7af9 052b d63f
000001e0: f8f8 17cc 569f edbf f7f9 b1f1 b235 d13f
000001f0: aafd 5151 ea5c ddbf 0864 516d d6ad cc3f
00000200: dd03 2dd5 a2ba fdbf 0cbe 91bf 468d debf
00000210: c0ec 1d46 459a f33f 1814 5fa3 2d53 f9bf
00000220: 811d de4c 54b4 e33f 21ba 1d07 7cbc e43f
00000230: 1495 3a92 f943 cb3f 4dd7 62cf 014c 9d3f
00000240: 1929 d086 2b6e fc3f 0454 f295 457b dcbf
00000250: 52b4 e885 1bc7 fdbf 78a7 c371 d6ab b93f
00000260: 4acd 0e19 91d4 ed3f 1035 6219 a386 ccbf
00000270: b9f8 b571 102e d1bf b167 d2c7 74c2 e0bf
00000280: 0a09 872e 8741 f33f a3c6 91c0 e2cc e5bf
00000290: 06d1 e557 2f94 fabf f31c 713b 6159 fabf
000002a0: 1bb9 62df a167 d03f 4afd fdd5 8173 e23f
000002b0: 699e 2a1b a700 0040 2a13 1720 ef96 debf
000002c0: 28c7 e7c4 f10c b8bf d7d7 b824 fcf6 db3f
000002d0: 37be ae8d afe1 fbbf ca81 163e 142f 0040
000002e0: 5cb2 63ec fe23 dbbf bd7f ff06 2ea7 e7bf
000002f0: 26cc 8b1c 1aa4 e8bf 68d3 3c6b 174a eb3f
00000300: c9cd c6e3 9fee dbbf cbf4 9567 88fd e0bf
00000310: 4b80 8f8c 309b e5bf da6d c67c d94b b1bf
00000320: b9df 312a fae6 e3bf dbe7 5bc7 4e25 e83f
00000330: 25a6 2891 d73b f5bf d294 c09f 0c14 d9bf
00000340: 8e4d 65e0 f57d f8bf 3192 2bd3 b886 c0bf
00000350: 2f94 48c5 129d b7bf 83eb 8938 eb87 fa3f
00000360: bfce d3cb 4cef c33f b796 95db 0a6f da3f
00000370: b791 168e 04b4 d2bf 071b 2ee8 76f7 f73f
00000380: d48b bf1c 8437 fbbf 33ea 7f9e 4ff0 efbf
00000390: 05e1 b638 6d89 eb3f d785 acf1 6787 df3f
000003a0: 3a25 3717 cdc5 e93f 85c4 36bb f40c f0bf
000003b0: e623 f97a 17d9 f7bf c724 3be1 5c5c ed3f
000003c0: 2ee4 7e65 9f61 e93f c208 116b 1ab6 e43f
000003d0: 9238 9b68 15f5 e63f f3b7 184b 83bf ecbf
000003e0: 5520 09e7 cb6f c33f f3fb abeb 33b3 e3bf
000003f0: 3181 bc68 89e6 f0bf 2fac 0c4a d215 ca3f
00000400: 6bc8 3e8b fbdd e1bf 6549 b571 1a76 e83f
00000410: 28b6 2282 2406 e53f 9150 7743 46bc f6bf
00000420: 9db3 468d 3d91 f8bf bc60 c30f d1f9 fabf
00000430: e1d0 7032 c419 f3bf e649 50a2 b508 f2bf
00000440: bd79 5db2 3911 f33f 5592 1b7e dc60 cbbf
00000450: c084 0e50 d49e dbbf cca1 1640 a607 d0bf
00000460: 0907 5dd4 98fd e63f 7ca3 89ba 9837 c93f
00000470: 05b9 cfa0 1ed5 be3f dbd1 1d23 dcd5 eb3f
00000480: a71d 780f 7736 f2bf 0a36 ebc4 af4a b7bf
00000490: 6bb9 0f22 b39f dabf 60d3 70e5 a00b d33f
000004a0: 412b a691 6cc8 e43f 254d c516 c91e babf
000004b0: 1ba0 1cff 7579 793f a506 0e17 73fc a03f
000004c0: a3c5 b03d 7b3b d5bf a3a8 e170 f3f1 d2bf
000004d0: 8d17 4c8b d5a3 e3bf 6882 f625 f682 0640
000004e0: 6eb5 25b5 6bda ecbf 8c27 7d1d a2ef b4bf
000004f0: 0161 c9e9 e12f c03f 62e4 06a3 b9de e2bf
00000500: 0a39 d5b4 7f09 b7bf 23ea 70ab 6c8e d43f
00000510: 0f04 5a86 d8be b13f 6579 9b4e 422f ed3f
00000520: b642 4f29 97d8 f8bf c14f 0e14 ccf7 fcbf
00000530: 2204 2746 a0bd e63f bcdb fd58 b210 f6bf
00000540: 2647 1cb6 8b93 f13f 4899 b888 7dd2 dc3f
00000550: bc59 4b22 9e06 d7bf b65c ea64 e8c2 d6bf
00000560: 6691 4feb 15d3 f13f 332d aa2a e1f3 e9bf
00000570: d721 bb6c 2c79 0ac0 1f76 7245 2b3a f53f
00000580: 4f1f 7397 a3b7 dcbf c5a8 6f67 1827 d9bf
00000590: 842d 36de d624 edbf df7a ea53 f85e 6e3f
000005a0: 1642 e7ee e0d8 e53f a3ef c6cb 2ca5 d03f
000005b0: 727c f21e ca08 f53f 742d c0c7 d4be cabf
000005c0: 22ab b992 8f3e f93f 678d e74d 7509 dfbf
000005d0: 2056 bcee e90b ddbf 4ecb 5b77 b31e 02c0
000005e0: e838 5f96 b9ca a0bf bae2 7d65 cd8a eb3f
000005f0: c698 ef00 fa81 f13f dba8 cd08 f885 e0bf
00000600: 01a8 52f1 b628 f5bf 1b29 7096 5622 d1bf
00000610: e7d4 1a9c a2de c83f f937 6e04 5fbc bbbf
00000620: fa9a 97fe fe8b bbbf 1698 dc22 d741 c43f
00000630: 7e6f e9ea a6d3 ee3f 6588 6dcf cf54 f3bf
00000640: 1ee7 682e 59db fc3f 906f 36ee 6583 f7bf
00000650: 13d3 7d7a 28f5 d63f 3dc5 6eb2 22d0 f7bf
00000660: 81b0 2b37 bcb6 cd3f 2501 b1c8 1486 d2bf
00000670: 92d0 e3f9 5209 a93f c945 ab38 adc5 f63f
00000680: 5c9e 164f 7965 c3bf b604 0b1a f3e2 ee3f
00000690: 0c52 c3ff cf48 d8bf 4ec6 f227 802f a13f
000006a0: ce63 af2f 1d6a ee3f 750c cf44 cf8d fa3f
000006b0: 0b53 b336 2c91 e1bf b5ce 7192 4894 d5bf
000006c0: f9a9 47ce 6415 f23f d9fc c1da dbd6 ed3f
000006d0: de2f 0cbd d7c6 bcbf 97db 8330 7308 c93f
000006e0: 2353 5105 6786 f23f 60b8 314c 1bbe e23f
000006f0: 0aac ad7e f100 d6bf 5b52 c087 e4cc c7bf
00000700: cc79 73fa 45ba e0bf b1cf af69 8200 e83f
00000710: 383a c1fe fe05 e0bf 6598 a55c 9cad d2bf
00000720: 9a97 d656 bd8f e93f cabc e252 d6c6 913f
00000730: 5b0c e2ce dc74 e13f 0d89 c615 43f1 efbf
00000740: 501d b93a 14ae e9bf 42f3 6888 5fef 03c0
00000750: c577 6f76 4b5a e9bf 7a14 97f3 b8d8 d2bf
00000760: e9b0 71dc 1b29 f33f 4a99 f342 fc89 d0bf
00000770: 14d7 8c4a 1749 e93f 7d5a e01e b560 d5bf
00000780: 148f 44e3 ecd2 d1bf e5fe 0d42 abac cfbf
00000790: 3c47 e6eb 7af5 e9bf 4681 a31d 8734 f7bf
000007a0: 515b eb01 59b8 e73f 2645 afed 9a76 e43f
000007b0: 4d8d 9b4f 6ace ea3f 0c7e 16b7 a4db cd3f
000007c0: 1ea8 aaac c48e ff3f c102 cc23 9cc6 f2bf
000007d0: 7325 b99e 8dd1 dfbf e169 dcd6 a773 e5bf
000007e0: 9ec9 cbc4 85a8 febf f97f e73b 45b0 e3bf
000007f0: 374b 814a f548 d43f b7b5 4fd0 323b e53f
-1.392841250885279 0.06043637927572812 0.37515375743316615 1.2738341317746993 -0.7230261049473891 -1.0361802421128936 -0.6694428139040922 0.18618895770561894
1.528705380463043 -1.185235336447524 -0.6527048241916753 -1.50132169459148 -0.6966617696110328 1.1712892661559058 0.1326027499990273 -1.5283037672541446
0.024761997474541643 1.345624573604938 0.22805407359128455 1.2483880323541414 -1.1414748139901227 -0.5807219333329252 0.6734907376542534 -0.19706429712992596
-0.7661953701934422 -1.862488370985422 -1.0873402609640297 -1.3861446817232832 -2.082692626471357 0.9092230936696665 -0.5397005067563192 0.33440125549653793
-1.0705550400820332 0.5362459992222631 -0.9161578565487826 -0.625174328843084 0.23988611121916234 -0.14823659694887995 1.3524205230930144 -0.20806161732573963
0.9702897110106762 -0.8811857389311751 2.3348798935089117 -0.009797730363337129 0.35554201361933196 0.6884418842762126 1.0057508783292952 0.22185984278494916
-1.5029099595082092 0.25652910715653904 0.282064045406135 0.09420643159589433 0.40818992763788786 1.1942758193769416 -1.3376291352485261 0.44676128528346987
-0.9694359641365067 -0.24236239860359293 -0.47248997329830916 0.34637593615668805 -0.925700567837139 0.268902526884545 -0.4587961000579194 0.2240551027087181
-1.8580654456311472 -0.4773728247446065 1.2251637209836161 -1.582807195825131 0.6157628537484215 0.6480083598124261 0.21301192894058174 0.02861025646480835
1.77689697896364 -0.44502391474935643 -1.861110232431447 0.1002782848114786 0.9321980943117663 -0.22285879840311695 -0.2684365377862253 -0.5237373259326344
1.203498059986091 -0.681260467636282 -1.6611779626373973 -1.646821243471831 0.2563252145290719 0.5765999965223412 2.000318729627726 -0.4779622853641735
-0.09394751603374785 0.43694976411950165 -1.7425990614391489 2.022987828313693 -0.42407200894266395 -0.739157689731648 -0.7700319821873378 0.8527943701252356
-0.4364394878750458 -0.5309488318595411 -0.6751940484355229 -0.0675636224390738 -0.6219454597585276 0.7545541661959264 -1.3271098776116415 -0.3918487129288454
-1.5307520642716983 -0.12911138831181426 -0.09224049870006533 1.6581833084626119 0.15574035599239797 0.4130274910333855 -0.29223741412922827 1.4979161328826096
-1.701053726480258 -0.9980848403641346 0.8605257137014922 0.4926395282837723 0.8053956464220058 -1.0031630814594632 -1.4905009082451612 0.91752475729404
0.7931668264710703 0.6472293940680844 0.717417434987299 -0.8983780352334619 0.15184925824201181 -0.615625343605528 -1.0562833873046424 0.20379093757341724
-0.5583474845536903 0.7644169064390495 0.6569998304091245 -1.420965446032856 -1.5354590910530768 -1.6859903922796056 -1.1937906236972184 -1.1271263447166517
1.1917054145229564 -0.21389347226717584 -0.4315691739848937 -0.25046688326486044 0.7184566638681825 0.19700917347224933 0.12043944765148147 0.8698559461468521
-1.1382971386209222 -0.09098337705219009 -0.41599729849158135 0.2975847473747333 0.6494658322056709 -0.10203224950719354 0.006219349788615626 0.03317603737288025
-0.3317554571577494 -0.29601751350004174 -0.6137492867135151 2.8139460531095217 -0.9016626871140667 -0.08178151340430712 0.12646125712741 -0.5896881279105737
-0.08998869099488985 0.32119290106098414 0.06931832580632168 0.9120189223574867 -1.552878533712073 -1.8104973586496131 0.7106477136768528 -1.3790763355479916
1.0985219110193127 0.4503473124663242 -0.3597789130120892 -0.35564622740771357 1.114034575636731 -0.8110204537673894 -3.3091667646988117 1.3267014229562688
-0.4487084368706648 -0.39301118947208763 -0.9107469883032739 0.0037073946144369064 0.6827244440156075 0.26008148098093836 1.3146458824992604 -0.20894870522929987
1.5777736407714618 -0.4849522839342257 -0.45385216058761735 -2.264990742195926 -0.03279666863055458 0.8606936437855304 1.0942325626906935 -0.516353623575266
-1.3224400927233548 -0.2677208394167267 0.19429428694062453 -0.10834306581656951 -0.10760492053632822 0.1582592888091205 0.9633364284631936 -1.2082059958124998
1.8035518467790506 -1.469579630392193 0.35871326410351506 -1.4883143396403533 0.23213913625602703 -0.28943366621753547 0.04889926243223032 1.4232608998903393
-0.15153423654304532 0.9652038105633867 -0.3794441220937024 0.033565525890833045 0.9504533702230391 1.659621495041191 -0.5489712780350556 -0.3371755056498203
1.13022308900929 0.9324778816807352 -0.11240909924907735 0.19557037228488802 1.1578130920144722 0.585706375901065 -0.34380757685602303 -0.1859403288696225
-0.5227384463904001 0.7500621856875026 -0.500731942718466 -0.29184636161369887 0.7987963386592469 0.017360066231671557 0.545515445774423 -0.9982009339621826
-0.802499880498468 -2.491881433203532 -0.7922723115150282 -0.2944776896295661 1.1975363360498312 -0.25842196024168074 0.7901722389276267 -0.3340275575186878
-0.27849886125680823 -0.24745693898511614 -0.8112158400929057 -1.450324168945444 0.7412533795821706 0.6394781725195215 0.8376971773945258 0.2332654851897903
1.972355532149329 -1.173488750297267 -0.4971651124984284 -0.6703681179527018 -1.91614319680648 -0.6152673883443632 0.31695301319011854 0.6634763783055665
