delete_later2/saved_params_15000.npy (npy, 836528 bytes, 1 tensors)

array f8 [104550]
00000000: aba4 dd1a feb8 f6bf 6202 8513 86d3 ab3f
00000010: b5ac f00a a875 d73f 511f 0bc7 335b f43f
00000020: 2c01 2f76 e7cf e8bf 9f20 9870 e963 efbf
00000030: 4d73 06d3 d830 e5bf bdc8 49cd d487 c63f
00000040: e080 847e 04b5 f93f f0f9 0d20 3c16 f4bf
00000050: b601 7578 95de e5bf 936a b5b8 b2eb fbbf
00000060: 8e94 96a5 06bf e7bf e148 0b62 7a5b f23f
00000070: 37ef 47fa d991 c03f 2461 a1b9 6084 f8bf
00000080: 7126 b049 40fc c0bf 726e 3575 f810 f63f
00000090: e6a8 f567 5b12 c93f 2b41 564c 52e6 f33f
000000a0: 9abf bb6d c72d f2bf 4b03 bc5f 61e6 e4bf
000000b0: 7e62 a246 c64a e43f 4640 13d9 9d19 d9bf
000000c0: 53e2 cfd5 7fd1 e9bf 88a7 21d1 6010 ffbf
000000d0: e2b3 9546 93a3 f3bf 4a13 b96c fabb f7bf
000000e0: b144 d897 8e01 01c0 daf5 bc1f 2317 ee3f
000000f0: e8ac e8a9 15fb e1bf 0d1f f8ef 98a3 d53f
00000100: 96c2 e49c 1c64 f1bf 353c 6c21 5f89 e53f
00000110: f572 773b bc50 ecbf a41a ce45 8a6b e4bf
00000120: 8108 bec1 7f9e cf3f e98c f0db 10c3 c3bf
00000130: 95fa 864a afd3 f53f 3185 a998 921b c8bf
00000140: 2ab6 786c e92e ef3f d0dd 5c07 9b4a edbf
00000150: 2c64 22d0 ce6f 0240 bcb6 0695 a264 91bf
00000160: 81fe 5b77 51c2 d63f 3bf7 7afb 76ba e43f
00000170: 0772 9877 87b4 ee3f 37eb eb4f 2442 d03f
00000180: 4113 c201 248d f8bf a773 a7e8 0c64 d13f
00000190: c439 2e37 1cb8 da3f ae48 efda 815b ba3f
000001a0: 5281 da30 044c da3f b33a f029 0801 f43f
000001b0: 7d6f c960 18c6 f4bf 0d3b 36b4 9d1b d53f
000001c0: b196 b1a2 063b efbf 5fae 7a08 bb4a cebf
000001d0: 97aa 1b1c cd41 d8bf 3857 f1ad 33ec d83f
000001e0: 29f1 c31f b196 ebbf ad78 962b ffff d33f
000001f0: 4dce f963 cef5 dbbf 7db7 7478 516e cb3f
00000200: 4a4b a466 9e14 ffbf 976c d1a9 6a2f e0bf
00000210: d178 7cea 100f f53f b232 e051 d4a4 f9bf
00000220: 8250 e2bd 85b7 e63f dedd 4979 ef13 e53f
00000230: 498a 1c55 a65c c23f f745 f8e0 b90f 8dbf
00000240: 4c31 c28b 4cb2 fd3f 0d5c d596 346c dfbf
00000250: c9b8 15bd 0889 fdbf d0ac 6660 76dd b33f
00000260: 586b c4e4 7e93 f03f adaf 6835 6f37 cabf
00000270: a401 c295 2fa9 d0bf 9983 4f06 e016 e1bf
00000280: a11b d669 934c f23f d821 e887 6703 e6bf
00000290: a5a8 7090 96c1 fabf de59 1a10 30cf fabf
000002a0: 0d30 7954 540f d33f 99e4 2825 4ff3 e23f
000002b0: 7663 3da4 6818 0040 a2c1 83cc 601a e0bf
000002c0: 7f0d 6c58 76c4 bbbf dad2 060b 2412 dc3f
000002d0: 7c0c 8448 90e7 fbbf 4ac8 234b 1b03 0140
000002e0: d3cd 3d48 306a dbbf 97c9 f842 4c00 e7bf
000002f0: 764f be23 0fa7 e8bf b087 761a 1225 ec3f
00000300: 2204 8a97 04eb d7bf 58b5 8c11 700b e1bf
00000310: 43c8 813c 68d5 e5bf f096 a4a2 7efd a5bf
00000320: c37e a667 573f e7bf be41 d1a0 6c4a e93f
00000330: 7976 8d00 d59c f5bf 9cbd 0638 5864 d6bf
00000340: fb36 1f6b 62fe f8bf 52df 9317 01b2 b13f
00000350: b214 a2a3 6dce b7bf 2668 f948 ec65 fb3f
00000360: 4bdd 6bd9 7fdb be3f a07d 9363 702b db3f
00000370: f2b1 4c9c b305 d3bf 58f4 6b77 a7e7 f83f
00000380: acd6 e607 aa17 fbbf 121d da65 1667 edbf
00000390: 4f8b e8d8 0341 ee3f 116c 60fd 05c1 e03f
000003a0: 0315 a3c9 f24a e93f 68db d590 c615 efbf
000003b0: ba29 a946 0a8e f7bf 10a7 3b52 2c78 ee3f
000003c0: 097e a2f9 4bea ea3f 67b6 5819 29fa e53f
000003d0: 130a 4fdd fbc4 e63f e2ef 3ddf 4804 e9bf
000003e0: 927f 2b73 f226 c43f fcbf 6c06 2335 e3bf
000003f0: 81e8 261b bb15 efbf 9be8 5b63 06ec c83f
00000400: d428 b161 5fd9 e0bf cfca 4946 15bc e93f
00000410: a35a fb86 1b20 e63f a590 893f 2e97 f6bf
00000420: a4dc 718a f40b f8bf f031 b5c0 f581 fcbf
00000430: c373 2e04 ce28 f3bf 724c 9a84 f86d f1bf
00000440: 2826 dcec 13c5 f23f 2b51 d1f4 342a c7bf
00000450: a110 ce69 0f7b dabf cb09 1416 2ec7 cdbf
00000460: 2242 3873 098b e73f e4ec 5edf b183 c83f
00000470: 621a cbd4 0fca c63f 5a42 52b5 bae8 ec3f
00000480: dc97 5396 64eb f1bf 9fd7 27f0 fdd6 a2bf
00000490: f7ce a1d6 cfed d6bf b287 6b23 de5f d43f
000004a0: f6fa a916 357c e53f d384 70ae 78c0 b5bf
000004b0: ff2e 458b 54de 99bf 493e 0ec6 029b a13f
000004c0: e85f 408d 8681 d5bf 0469 5144 abde d2bf
000004d0: 40ad 9317 973e e3bf 5314 72b7 356d 0540
000004e0: 737e 33f0 c1b5 edbf e2ea 9d6e bc94 b5bf
000004f0: 50f6 ae4f 82af a13f 05d7 e465 d6d7 e3bf
00000500: 83eb f8d7 dd62 b2bf a08e 7c68 aa0c d33f
00000510: 6e1a 612b 42eb 963f 19a0 25ab 4bcc ed3f
00000520: a294 f6d2 8a16 fabf 9346 8443 0c32 fcbf
00000530: dec5 9c9d b915 e53f 0e55 f9f3 eded f5bf
00000540: 0e46 2d45 630e f33f 82f0 96e9 086c dc3f
00000550: f428 f25d 68ae d6bf 2f76 d283 3c75 ddbf
00000560: 35eb e66c 953a f13f 956f 19c3 1ecb edbf
00000570: add0 d28b a8da 0ac0 f4ca 897a 59f2 f53f
00000580: d354 0ec0 006c e5bf a479 bf50 1de5 d8bf
00000590: 5d16 f5aa 1826 ecbf f47f 1810 935a a33f
000005a0: 4beb 44eb 677c e43f d490 e193 8ef8 d13f
000005b0: 61ac 96e9 f0fa f53f e1f0 c2a1 2c2e d7bf
000005c0: f32c 1090 3e85 fb3f 8bf1 23fa 1580 e0bf
000005d0: c44d a88e 5d99 dcbf 29e9 820e 574b 02c0
000005e0: b72b a073 3478 adbf c408 092f 265c ed3f
000005f0: 1793 346b 993f f13f 5271 0cf3 2f04 e1bf
00000600: 4916 d7a1 3cc0 f4bf 63f2 01c0 62d5 d1bf
00000610: 68ac 0926 17ec c83f ba84 c002 02d7 c0bf
00000620: 8865 a358 dba8 9cbf 3a4a 4ec1 979f c83f
00000630: 2e72 3c6e 4631 ee3f b6f6 b2b4 c78d f3bf
00000640: 1fba 467b c6af 0040 5c83 1dfb b485 f7bf
00000650: 110f e7bb 709e d53f 6e9c 09e0 f0d6 f7bf
00000660: 327c cd33 8de6 cf3f 69fe ce0a d669 c9bf
00000670: 86e4 5b7d bb3c 9e3f 7721 d228 c48c f73f
00000680: d94e efab 35de c8bf c844 2542 16e2 f03f
00000690: 377d 47ae e3eb d7bf 3e8e b8e0 2476 eabe
000006a0: 594d 9483 a115 ef3f e3d3 f212 4e8e fa3f
000006b0: 32a8 8757 3115 e1bf e252 eb74 5725 d5bf
000006c0: dd6f 57db b810 f33f eb33 5bf6 c10b ef3f
000006d0: 1cb0 55e2 2554 9a3f c0f0 b56d a111 c93f
000006e0: 47d0 6714 93b8 f23f 471d cd7b 33fe e23f
000006f0: 312c 09f5 b7d2 d1bf d14e be6d fb41 c9bf
00000700: 070c c98e 1458 e0bf e5b5 c834 083e e83f
00000710: beb2 fac6 37a4 debf 9b8b 4a56 e4a7 d7bf
00000720: 1618 34ba 9cd0 e93f 6173 e140 7daa 7ebf
00000730: 4633 7fa1 2a18 e13f 75f7 e82f cea0 efbf
00000740: 022e 3a05 3a1f e9bf 5c8b 725b 35fe 04c0
00000750: c2bb 6dd3 5790 eabf 0b36 6180 4d78 cbbf
00000760: 7586 3582 2c98 f23f 047c 33b6 29df cfbf
00000770: b0b2 89be 29bd e93f 2b69 b672 e2a2 d4bf
00000780: fc41 b98c 752e d2bf 0d32 95f9 b6f7 c7bf
00000790: 92e2 4fca 6bf0 eabf 35c2 9ac1 4aff f6bf
000007a0: dfca a883 b83a e83f b828 5ae5 0b09 e63f
000007b0: 5e7c b391 6d55 ea3f a1bb ae58 9544 d03f
000007c0: ee10 031f 0aaa ff3f 3025 38fe fede f2bf
000007d0: eac3 75bc d522 e1bf d607 ac8e 8065 e5bf
000007e0: 266a fb3b 2f09 ffbf 5bc5 2147 fbe8 e1bf
000007f0: 656a e7c0 90dd d63f 080a afc6 9dea e23f
-1.4201642083592485 0.054348173029670446 0.36655617779133404 1.2722661757597573 -0.7753789242051758 -0.9809462737184907 -0.6622127648912312 0.17602024101103622
1.6066937391370217 -1.2554284336216561 -0.6834208824803258 -1.74504348899669 -0.7420685991425147 1.1473335103842646 0.12945103379012732 -1.5323188067614604
-0.1326980933957205 1.3791431978669633 0.1958727128615642 1.243730829421177 -1.1361765181027068 -0.6531226033986085 0.6341277484489891 -0.3921885127902026
-0.8068236518875643 -1.9414985818097836 -1.2274353749482931 -1.4833931204786546 -2.125760256087766 0.9403243656049043 -0.5618999784977889 0.3381101935815288
-1.0869413498550435 0.6730189945973338 -0.8848553811509122 -0.6381274569874518 0.2470245071418198 -0.15439043750038842 1.3641808425160538 -0.18834145025452068
0.9744765394768298 -0.9153571265987299 2.304593683290042 -0.016985454889143922 0.3556102433794664 0.647761813328294 0.9595372520303166 0.2540369778140987
-1.534458166949847 0.2717315933239725 0.41748719586112437 0.10295878977857129 0.4108896710477171 1.2502519262522298 -1.2983630924927347 0.3298105487710224
-0.9759553125010908 -0.23665559686684198 -0.37901618714264756 0.38941661821933193 -0.8621450062196675 0.31249980217570333 -0.43687782061826824 0.21430414563786462
-1.9425338754123964 -0.5057881657370612 1.3161782416932974 -1.602741546466103 0.7099026402161288 0.6586835259358244 0.14345244556268913 -0.014190151384386047
1.8560300311392721 -0.4909793351156971 -1.8459555994154917 0.0775979981760202 1.0360096870633324 -0.2048167238984865 -0.2603262865523226 -0.5340423701528493
1.1436952718956734 -0.6879155783108741 -1.6722627298536648 -1.6755829457302904 0.2978106331763691 0.592200825288404 2.0119183379396715 -0.5032199854304518
-0.10846652659170351 0.43860722615072023 -1.7440340836190265 2.126516901998035 -0.4283562379343639 -0.7187863643687703 -0.7703929613221436 0.879525233922541
-0.373719356524875 -0.5326462118879745 -0.6823006803299524 -0.04294963584315592 -0.7264821075841258 0.7903350010838535 -1.350789072187949 -0.3498745486385475
-1.5621055778933044 0.0691223795473637 -0.0929935955519621 1.7123835421139204 0.12053679521692577 0.4245263073371124 -0.29722299827224596 1.5565561928663296
-1.6932773884449643 -0.9188339223191255 0.9454364048473084 0.5235624264490771 0.7903989732955384 -0.9714081600967406 -1.4721777687251305 0.9521695715058929
0.8411006808927947 0.6867871756600835 0.7115458795963739 -0.7817730293459102 0.15743857024699232 -0.600236427830168 -0.9714026956855976 0.19470290996088555
-0.5265347393081137 0.8042093632523918 0.6914193760265629 -1.411909340088678 -1.5029187591551727 -1.781728508724992 -1.1974620974863093 -1.0893483333391285
1.1731147053091124 -0.18097555116640626 -0.4137609990359668 -0.23264099195519203 0.7357222795854492 0.19151900679376077 0.17804143801022848 0.9034093419487121
-1.1199689743166266 -0.03679650837504699 -0.3582648845688107 0.31835130175579274 0.6714120333343476 -0.08496813067224034 -0.025262185097104425 0.03438576381369935
-0.3360306147965262 -0.2948406378906301 -0.6013904057012169 2.6783251125039356 -0.9284372035435368 -0.08430078220946371 0.03454215262125315 -0.6200973501315451
-0.07182108423960014 0.2976480503441312 0.02238181485906881 0.9311884253229464 -1.6305034867048467 -1.7622187268611114 0.6589019850127291 -1.3705882578117925
1.1910126402111731 0.44409392177090734 -0.35439500021369885 -0.4602805411649084 1.0768026594148072 -0.9310449419531205 -3.3567667888365436 1.3716673647547255
-0.6694339514821429 -0.3889840401224325 -0.8796504343997175 0.03780040332298987 0.6401862712003575 0.28079571191325425 1.373764908271163 -0.36219325825710597
1.7200303676098059 -0.5156354795031332 -0.4468606846941976 -2.2867871411991882 -0.0575577155251134 0.9174986761720665 1.0780271709165328 -0.5317611453097391
-1.296932823360651 -0.2786490321230188 0.1947049079638845 -0.13156151899696572 -0.0279878876543527 0.1923703855396342 0.9435150292443433 -1.2221142824704834
2.085827792259138 -1.4701432999792905 0.33779543256626804 -1.4899758101908236 0.2492233756010776 -0.19854236152422125 0.029528550649932338 1.471866759735432
-0.19428130049947503 1.0551970084964513 -0.37377254504640994 -1.2617826562317317e-05 0.9713904924305253 1.659742425935513 -0.5338370046204146 -0.33040415208715335
1.1915825431851694 0.9701852618833277 0.025711624087691218 0.1958505426117707 1.1700621411410042 0.5935304086678251 -0.2784862416198762 -0.19732611521305057
-0.5107519902015846 0.7575722723901747 -0.47877306396075514 -0.3696223108947209 0.8067153584277118 -0.007486809989214333 0.5342000154720175 -0.9883795676939672
-0.7850618459792147 -2.6241252083140534 -0.8301200036493059 -0.21460884827176616 1.1621518217365552 -0.24899789234675052 0.8043411942904495 -0.32244168474575713
-0.2840856432203791 -0.18724715410861884 -0.841848273411488 -1.437327152507476 0.7571680613967507 0.6886043052229729 0.8229282232022219 0.2541859975853474
1.9790135585217814 -1.1794423990671241 -0.5355023079738406 -0.6686404024660486 -1.9397423117685633 -0.5596901311202304 0.35727328146246 0.5911396866361551
