delete_later2/saved_params_25000.npy (npy, 836528 bytes, 1 tensors)

array f8 [104550]
-1.4086071170413752 0.05797723372682421 0.3746120620225943 1.2791197682279642 -0.7418879638338962 -1.0129687167672181 -0.6716511999551371 0.18761977053405146
1.5564372000250197 -1.2089312920803381 -0.6612985511972367 -1.5917983450397704 -0.7134278681527099 1.1661061030297493 0.12813364920885748 -1.532775795667982
-0.04224094654122544 1.3550781118404276 0.2132746937774006 1.2443586806409028 -1.139161869478371 -0.6052061114130736 0.6599461413678842 -0.2642530724525249
-0.7792617879866066 -1.8918827714201465 -1.1395556016526744 -1.4239864667020745 -2.0984751493656733 0.9199597139586835 -0.5521995485786468 0.33816789550669
-1.0755232432082653 0.583344499302552 -0.9095584567773859 -0.6252925058043902 0.2446668629617248 -0.15008316960232881 1.359630817937042 -0.2074671015088233
0.9709418028000835 -0.892624890126064 2.3233176702756797 -0.010690127086123203 0.3557503698321209 0.6742411940355314 0.9914074676325754 0.23362008781593688
-1.5158195730256288 0.261991955624871 0.3334932578904659 0.09551837588994579 0.4073968849032705 1.2137740268609487 -1.3262995235138206 0.4133028542590048
-0.9750376479601168 -0.24393211561226216 -0.4416121410960302 0.35799564358610103 -0.8998624594889826 0.2893344676536882 -0.44994570184434396 0.2209282912574382
-1.8903269395638462 -0.48910254705096984 1.2559286470972228 -1.5891844679877412 0.6399907906457015 0.6518471031918665 0.1871021281021511 0.014106500255155257
1.8060228962981375 -0.4686120708023239 -1.8590583717159082 0.09643751990585345 0.9747551978442852 -0.22126787264861444 -0.2639841819239223 -0.529978827961388
1.1840426250860403 -0.6860242304642652 -1.6654547595498053 -1.6612219259761198 0.2694020382705976 0.5795140036440987 2.0062872012240773 -0.48581261318997543
-0.09880199313859343 0.43589645577761027 -1.7464742351975495 2.0541323280493153 -0.42666622340026095 -0.7331259770936449 -0.7706806492615278 0.8621567279563642
-0.40770202847633175 -0.5309241142810063 -0.6772770531393157 -0.056866668111942506 -0.6545743573297785 0.7671922506958828 -1.334743536731377 -0.3794513480606599
-1.5408188076630185 -0.056624514603550384 -0.09279155470264132 1.6719796387021229 0.14951134052658518 0.41559254217530717 -0.290153694751251 1.5227720618605227
-1.7007400599128701 -0.9717462973805676 0.8878814114113744 0.5037961392595723 0.806531024560206 -0.9878971921597556 -1.4955331269646592 0.9300884500233946
0.8090246599486285 0.658378745069946 0.7147845280055773 -0.8607420518957427 0.15147031964491123 -0.6109116710311773 -1.0268377185134776 0.20708509768330194
-0.5506163188394906 0.7815587972875049 0.6723922864832553 -1.4182920698712163 -1.522922314957758 -1.7191495031922932 -1.1887198108671222 -1.1152825410228786
1.183482528839617 -0.2033871819135973 -0.42637116666189884 -0.2406620297755133 0.7242213895757956 0.189904107091475 0.144642561860345 0.8819372449129783
-1.132591633875286 -0.07323942838697417 -0.39269234762025723 0.30267735406537366 0.6575794324979961 -0.09489095068332357 -0.011592767307450765 0.03329799649420585
-0.33175040774674797 -0.2948084351151454 -0.6091206130024077 2.7630208516608223 -0.9060723325889655 -0.08295165594101289 0.08872743946615742 -0.5981179786677837
-0.08258639397965244 0.31862437606371696 0.050140152906285596 0.922679276512935 -1.5772234240846723 -1.7911795443718201 0.6972549487182085 -1.3799162333891375
1.115592442995203 0.4463817794276846 -0.3590898455248554 -0.39164801977186753 1.1022931927717587 -0.8531166434489321 -3.3253995084445345 1.345649289390414
-0.5277941825103638 -0.38851332165018204 -0.8990913740609627 0.011830219024659437 0.6650466596569746 0.2673918750998883 1.3380847350178546 -0.27028704664246067
1.6342861223607643 -0.4920229484024464 -0.4525392545696636 -2.272469717332844 -0.04220116323478624 0.8755738730140867 1.090823693235837 -0.5208114795986616
-1.3127401724473708 -0.2716194151040012 0.19289781449314145 -0.11609182929266457 -0.08065554016674854 0.1739407888944189 0.9555818625313429 -1.2145220944263493
1.9161313923412688 -1.471981387680776 0.3520480796872862 -1.4916174104330373 0.23929574036050902 -0.25865391770012996 0.04049633250832594 1.4357769952151302
-0.1681795810883196 0.9945255053870338 -0.3751140438435753 0.017870706303891617 0.956913394383921 1.6598070957587236 -0.5533921360304942 -0.33490123282346806
1.1533402650871898 0.9536416563888991 -0.06864390365187777 0.19393462639094414 1.1646924702520038 0.5871464846376377 -0.32166921563424666 -0.19634328319858244
-0.5218025093840922 0.7512174209617076 -0.505537985366796 -0.3226640939663626 0.8043255427853554 0.010568462998175083 0.5448238142030629 -0.9950362979719323
-0.7949989655862156 -2.5438489163870956 -0.8027634585453718 -0.27133355387101055 1.1898740603200388 -0.25511388451191075 0.7947498137641815 -0.32452449875462624
-0.2856125389933606 -0.2363364069741108 -0.826545460533102 -1.4466238298336849 0.748521153501246 0.6560987212874049 0.8336533460674053 0.23897955705827403
1.9744605559215844 -1.1707404650569455 -0.5069984306171854 -0.6696802010590635 -1.9242251529239909 -0.5950020721844566 0.32908000050000175 0.6389875307232458
00000000: 56b0 c99d a789 f6bf 35dc 8925 31af ad3f
00000010: 23bf c4de a4f9 d73f 9f4c 434a 4677 f43f
00000020: becd bed3 8bbd e7bf 3d2e 66af 1e35 f0bf
00000030: 0c0c 44a8 2a7e e5bf 616d 43b5 ec03 c83f
00000040: 112a 86b1 2ae7 f83f 8789 a956 c857 f3bf
00000050: 1819 4994 5b29 e5bf 225d 9c8a 0178 f9bf
00000060: 1fab 38ae 66d4 e6bf 48dc 82df 5ea8 f23f
00000070: 4341 6ff4 ae66 c03f e7e8 a7e9 3f86 f8bf
00000080: feae e4f7 9aa0 a5bf c114 de62 66ae f53f
00000090: 104f 6bcd 954c cb3f cc8a dda5 e4e8 f33f
000000a0: 3d28 e4cb 013a f2bf b278 fb34 d95d e3bf
000000b0: 907c c95e 471e e53f 6f45 03b8 85e9 d0bf
000000c0: 4899 cd6a b6ef e8bf 91d8 71de 2645 febf
000000d0: 4226 91a7 9e3b f2bf 7ce9 8608 a6c8 f6bf
000000e0: 4af4 cf56 adc9 00c0 c6e1 a25a 4f70 ed3f
000000f0: 2c5c 4063 9eab e1bf 4889 f0f4 8aa4 d53f
00000100: 7bad 3adc 5735 f1bf 64ca 5915 c2aa e23f
00000110: 5d17 3556 1a1b edbf cfa3 db6d 6502 e4bf
00000120: 60f2 6a67 3e51 cf3f 789e 8fe0 ec35 c3bf
00000130: f1c5 9a3e 0cc1 f53f acf7 fc2f 488e cabf
00000140: 7b0f 2b8b f411 ef3f 38fc d512 6290 ecbf
00000150: 746c 2093 2796 0240 dac3 cc91 b4e4 85bf
00000160: df01 fe32 9dc4 d63f 83f4 bf44 6293 e53f
00000170: 33bf 4f27 9cb9 ef3f 1fd6 6d56 43e7 cd3f
00000180: 1682 4c06 cc40 f8bf 7254 4ee8 79c4 d03f
00000190: ecdd 041b f457 d53f 2d46 9d6c e473 b83f
000001a0: 77b7 4962 ca12 da3f cba1 6150 9e6b f33f
000001b0: 6d13 63d9 8538 f5bf 42b2 98d0 8d73 da3f
000001c0: 5670 4b27 8233 efbf 45d7 7fe5 2a39 cfbf
000001d0: 0289 e191 5f43 dcbf 8604 548f 66e9 d63f
000001e0: e0e7 4c5b accb ecbf fc66 0bb7 7484 d23f
000001f0: 1f6c 990e e9cb dcbf 391e dbd4 6047 cc3f
00000200: b4ca 0276 c73e febf 9159 fec4 744d dfbf
00000210: 0846 16a3 4818 f43f 9b18 55b1 4c6d f9bf
00000220: 2510 72f7 cd7a e43f e671 c674 eedb e43f
00000230: 94f9 9a68 f6f2 c73f 8325 0e6a dee3 8c3f
00000240: dcd7 b643 78e5 fc3f 1ad6 a67b bdfd ddbf
00000250: 55ff bdfd b3be fdbf 865d 1a1a 21b0 b83f
00000260: 621c 0bd0 3131 ef3f 9334 5772 8152 ccbf
00000270: 6792 01e9 1de5 d0bf 8e54 b528 96f5 e0bf
00000280: 5308 fdad d6f1 f23f 5871 4316 e9f3 e5bf
00000290: 4abe d3e3 b3a5 fabf f772 3771 5d94 fabf
000002a0: ee44 f60b e23d d13f b636 a7f3 608b e23f
000002b0: 5320 dd4d e00c 0040 d1a7 68c9 8d17 dfbf
000002c0: fb53 4f61 164b b9bf 1675 803f bae5 db3f
000002d0: 70ae b7f7 8ef1 fbbf 7506 15ee dc6e 0040
000002e0: 00f7 f3d8 7f4e dbbf 54e3 ee9b c475 e7bf
000002f0: 39a0 0777 6aa9 e8bf a02a d3b4 c996 eb3f
00000300: ac65 b43f ca17 dabf 7dd4 6f91 54fd e0bf
00000310: 5411 32ed 40ac e5bf 3eeb 8bbf a01d adbf
00000320: 0103 31ec 45f2 e4bf 6c78 4fc3 d68c e83f
00000330: 2ff0 ec09 1c5b f5bf 51fe 954e ee48 d8bf
00000340: 0e97 3f9f 31a7 f8bf 178d bf6c e3fd acbf
00000350: 87f7 caf4 2fc1 b7bf 31db bcb8 6dc0 fa3f
00000360: c3ad f806 3023 c33f 3aaf 4676 1199 da3f
00000370: cb4a 71cd e091 d2bf 4441 cf3c 465d f83f
00000380: 6d2a 8535 3b36 fbbf af46 e8b0 8b18 efbf
00000390: 209f 1747 8669 ec3f d111 bf14 191f e03f
000003a0: 3041 b626 1acf e93f 355d 8492 da9c efbf
000003b0: 805d e624 b4ed f7bf 249c 67da 48c3 ed3f
000003c0: 5361 04af 87e3 e93f 3f9f 4e4d 7011 e53f
000003d0: 6410 6fcd 83df e63f 8ee4 65ea 328b ebbf
000003e0: 8143 9822 6163 c33f 125b faa1 968c e3bf
000003f0: c408 3563 ed6d f0bf abf5 04b5 c381 ca3f
00000400: 98e7 411d a69e e1bf 9807 4898 8702 e93f
00000410: 61e7 10d4 3c84 e53f 4b5e 8406 53b1 f6bf
00000420: 9479 11ca e35d f8bf 2954 d2e8 a281 fbbf
00000430: 6a81 7c10 ff04 f3bf 80e3 7781 32d8 f1bf
00000440: 770e 4c60 8bef f23f e14b 5f57 9708 cabf
00000450: 4d4b 314a aa49 dbbf e72c a36d 03ce cebf
00000460: c055 e955 d22c e73f 6dbf aa1c c74e c83f
00000470: 1d61 66c0 a583 c23f 96d1 0075 d438 ec3f
00000480: 1f7b b367 181f f2bf 5025 b3b5 d1bf b2bf
00000490: 2fc8 9a15 df21 d9bf 82d6 3cd6 105f d33f
000004a0: 7b3c a305 e40a e53f 8208 dff9 c54a b8bf
000004b0: 1126 a5e3 f2bd 87bf 320c ee5b 6f0c a13f
000004c0: a13e ed0f 663b d5bf 1fe3 d932 24de d2bf
000004d0: 2746 0583 ea7d e3bf f764 20ad aa1a 0640
000004e0: 1af6 8867 8bfe ecbf f46a 6ad9 513c b5bf
000004f0: cdd4 c36a d7b6 b63f 62e3 b050 c823 e3bf
00000500: bbb7 3cc5 6124 b5bf 82bb b97e 5764 d43f
00000510: f0da e559 f8ab a93f 6a3d aab0 9686 ed3f
00000520: 64dc 0ea1 4e3c f9bf 5875 c5e1 aba8 fcbf
00000530: ec00 379c e94f e63f 7a03 5a0b 2314 f6bf
00000540: 2a44 2576 77d9 f13f 2d05 0be2 8491 dc3f
00000550: 6fb7 b6f9 53fb d6bf 3da7 1ddb c210 d9bf
00000560: 17ee d82f fea2 f13f a62a 6946 bb4c ebbf
00000570: e23a b70e 6b9a 0ac0 5914 9d8c c787 f53f
00000580: 8cd5 1ca0 b0e3 e0bf 2610 a3fa 66dd d8bf
00000590: 26a4 f645 5bc5 ecbf ccff 851e 713a 883f
000005a0: d04d b1ee 0f48 e53f ed49 b1cf f21c d13f
000005b0: 2fdb 028a cb68 f53f a727 770a 624c d1bf
000005c0: c789 7d34 0926 fa3f ba47 11d2 4d7d dfbf
000005d0: 6c1b a234 67f6 dcbf 6ac2 689a 042e 02c0
000005e0: 19a4 e40f 649b a5bf 5e7b ba7f b304 ec3f
000005f0: d065 828b 0374 f13f 723e 08d6 7caa e0bf
00000600: e4e8 ccd6 fb00 f5bf 3024 3566 3662 d1bf
00000610: b7e4 5b26 e0b0 c83f 3612 25b2 31b8 bdbf
00000620: ede4 416b d7a5 b4bf d9f8 de17 b143 c63f
00000630: e121 076a 2094 ee3f 1d4a 3db8 ae6e f3bf
00000640: 781d 0f64 79a8 fe3f d88d 065b 3c8d f7bf
00000650: 8318 38ab f487 d63f 0344 bf37 aadd f7bf
00000660: bbd2 7529 3ea1 ce3f 0147 6029 c98d d0bf
00000670: 0d60 766f efbb a43f 27c5 6c4c f1f8 f63f
00000680: 528d 5094 e886 c5bf 179b 1527 27d3 ef3f
00000690: 9605 a555 de01 d8bf 77cb 86cc b24c 923f
000006a0: 1e77 bfd6 089f ee3f 453d 9fe2 918e fa3f
000006b0: 71aa c36c 63b5 e1bf ea7a 9794 056f d5bf
000006c0: e959 fbeb 1474 f23f 1965 c981 3b84 ee3f
000006d0: cf2c 4199 a592 b1bf 639e f48e d9d2 c83f
000006e0: b313 5a92 94a2 f23f 545c af6c e7c9 e23f
000006f0: 24dc 517a 3a96 d4bf 5d47 10d6 c621 c9bf
00000700: 27d0 182d 9bb2 e0bf 77e9 e61d f909 e83f
00000710: db27 41ff 5d2d e0bf b574 cb4c 87a6 d4bf
00000720: b537 b3eb 08bd e93f 17b6 9117 eba4 853f
00000730: 3db1 025a 326f e13f 60ea c35c 56d7 efbf
00000740: f57d b1ab a170 e9bf eac7 ee75 cd59 04c0
00000750: 060a 1cfe 3cb0 e9bf 8ebd 0b69 875d d1bf
00000760: caee f661 b909 f33f c4fc ae2f c953 d0bf
00000770: e6d0 5329 976e e93f efb8 3967 02c5 d4bf
00000780: e074 93d0 7947 d2bf fa6a 6779 4540 cebf
00000790: aab3 3477 0f73 eabf c7ff 6b07 5f25 f7bf
000007a0: 93dd 54a2 e2f3 e73f ef0e dcbe c2fe e43f
000007b0: 6bef 31c8 49ad ea3f 492a fdd2 e196 ce3f
000007c0: 8ecd aef3 6397 ff3f e55f 985a 5abb f2bf
000007d0: edf8 d3c5 5439 e0bf ea79 4a2c 056e e5bf
000007e0: ad2f 5f50 a0c9 febf ffb3 22c9 410a e3bf
000007f0: 2a92 fa8f a50f d53f a642 60fa 9572 e43f
