delete_later2/saved_params_10000.npy (npy, 836528 bytes, 1 tensors)

array f8 [104550]
0	0xbff68ab3a051e20b	-1.4088627111906387
1	0x3fa7cf14382e0cd0	0.046501762254615664
2	0x3fd6ed4e2ef480dc	0.3582339724107564
3	0x3ff4460c6b98e78c	1.2671016886729118
4	0xbfe9ad6931c26e45	-0.8024183246483935
5	0xbfee310795115eff	-0.9434850608331259
6	0xbfe4d57bd80c8e15	-0.6510600299556609
7	0x3fc46b98aa1c5e7f	0.1595335798854087
8	0x3ffa6e47f936e161	1.651924108022364
9	0xbff4b88ab3656050	-1.2950541503578457
10	0xbfe67acdbf132865	-0.7024906856470464
11	0xbffd9abcd00b1150	-1.8502777220429216
12	0xbfe8d93322cbab70	-0.7765136413193954
13	0x3ff1eb4527dd6172	1.119938998910666
14	0x3fc272a5b262dbd4	0.14412375650655795
15	0xbff876f34a5078d6	-1.5290406134513908
16	0xbfc33d294244de6c	-0.15030399070541323
17	0x3ff65adc459e4923	1.397182723948
18	0x3fca74d98c46c8ee	0.2066909727996697
19	0x3ff41571c6dfe537	1.2552354591883395
20	0xbff228d4ad17ca89	-1.1349684487765066
21	0xbfe5c04e0cb4a1d9	-0.679724716964354
22	0x3fe3ce56eb4f75a1	0.6189379306703594
23	0xbfdf8df1570132f3	-0.4930384969382395
24	0xbfeaad523bd33c0f	-0.8336573761424705
25	0xbfff905aabf92ca3	-1.9727427213390818
26	0xbff4793d6fda007e	-1.2795996064378694
27	0xbff80fc39087127c	-1.5038486142740615
28	0xc00130ea52998b19	-2.1488844349963867
29	0x3fee8b79e0cbd65d	0.954525889449268
30	0xbfe2112074d4bc42	-0.5645906717162534
31	0x3fd3d1ca0e750a04	0.3096795216735304
32	0xbff19e41af6cd68d	-1.1011368610901713
33	0x3fe81475b126936a	0.7524975261663773
34	0xbfeb9f4233fa6130	-0.8631907477565957
35	0xbfe5675cf1325814	-0.6688675604698369
36	0x3fcddba38ec3ea65	0.23326534720384298
37	0xbfc42f09788dff19	-0.15768545519312552
38	0x3ff599ba4b89c604	1.3500311804494922
39	0xbfc3e4a492d0c2f1	-0.1554151265022692
40	0x3fef77a8082a4c81	0.9833564910390039
41	0xbfeda61035f77d41	-0.9265214017904456
42	0x4002619f7cf045c8	2.2976674805474637
43	0xbf98db649b16ed24	-0.024274417844691545
44	0x3fd6e0f24cc7c63b	0.35747964380343306
45	0x3fe41cb653b553c9	0.62850490903167
46	0x3fee02eedb320c4e	0.9378580361520876
47	0x3fd17c42233c1b85	0.2732091278161806
48	0xbff8bd4b0a9262be	-1.546214143081826
49	0x3fd1ee6f5beb82bb	0.2801779172569174
50	0x3fde19a07bb1c608	0.47031414107831937
51	0x3fbe6596fb47323d	0.11873763689727297
52	0x3fda479984ad9617	0.4106200977024356
53	0x3ff47a64dc6011f5	1.2798813446435109
54	0xbff45e4d0ef14caa	-1.2730227073377969
55	0x3fd01afc133298ec	0.2516470134236346
56	0xbfef0b530396df38	-0.9701323576073042
57	0xbfcc9811cefbadfd	-0.22339079481695015
58	0xbfd5fdf21f8e65af	-0.3436246212164304
59	0x3fdb10ac83d6aee0	0.42289269327987533
60	0xbfeace0b27c5e1eb	-0.8376518036666857
61	0x3fd49afe4a257b96	0.3219600414358238
62	0xbfdb0948f5cdf7f1	-0.4224417114672852
63	0x3fcb4b2aa1f23a45	0.21323140056161285
64	0xbfffc47ca0e76ab9	-1.985470417529241
65	0xbfe0b1c60a27d43a	-0.5217008779860699
66	0x3ff5c0d0e37cadd4	1.3595742117130287
67	0xbff9d1de139570cf	-1.6137371792784057
68	0x3fe88dc909c3ec09	0.7673077765206254
69	0x3fe53d0d7875aab0	0.6637027123191128
70	0x3fbcd45040f4b445	0.11261464677655038
71	0xbfa2452322fec5ac	-0.035683725377917724
72	0x3ffe1f325c782e99	1.8826163875664064
73	0xbfdf5893fa665bb0	-0.4897813744841484
74	0xbffd5c732d29469e	-1.8350707782850928
75	0x3fafdf34fc07095f	0.06224980904109389
76	0x3ff10a18baec1501	1.0649649907730352
77	0xbfc5d409461a6988	-0.17053333209043964
78	0xbfd0aa807b41ad8b	-0.2604066089322365
79	0xbfe13bb14c11dce1	-0.5385366903055023
80	0x3ff1e9c49584b0de	1.1195722427901766
81	0xbfe5d2ebb1537a4c	-0.6819971526527495
82	0xbffac178f707b5f6	-1.6722345018018792
83	0xbffaba3c1f353fff	-1.670467492967873
84	0x3fd461d50e76907d	0.3184712067834495
85	0x3fe37e0c90f40f0b	0.6091368514175611
86	0x400015b5895a5ba6	2.010600159711845
87	0xbfe057a5b609a1c1	-0.5106991343901016
88	0xbfbe0495edcc036e	-0.11725747161473318
89	0x3fdc4562b88b3f1b	0.4417349626719315
90	0xbffbe16cd832a488	-1.7425354428508246
91	0x400159c1d7963c2d	2.168826755783377
92	0xbfdb32f9e0cdfe9c	-0.4249863334043569
93	0xbfe6a4a3cc39767d	-0.7075976361044948
94	0xbfe8c0e02810603f	-0.7735443861483943
95	0x3fec67fcfb5df679	0.8876938733589689
96	0xbfd674ffde6169a4	-0.35089108197066765
97	0xbfe10fc04ac127cb	-0.5331727466630068
98	0xbfe61ffc14a1b20c	-0.6914043810807597
99	0xbfa0b8050cf2b2ec	-0.03265395911271249
100	0xbfe89c4b8ae9ef5f	-0.7690789902839973
101	0x3fea0dd6cd142690	0.8141893392032262
102	0xbff5c60a2c1b9e5f	-1.3608495448078413
103	0xbfd44514705562df	-0.31671629877159363
104	0xbff96418ada60160	-1.5869375975745115
105	0x3fc5f864aa7fa6b5	0.1716428596985701
106	0xbfb676d94b2e2810	-0.08775098882156862
107	0x3ffc3bc04857e2f6	1.7645876718435693
108	0x3fb90150a31d8a5e	0.09767631513890637
109	0x3fdbcda9620743d7	0.4344275910671604
110	0xbfd3ce58925434ca	-0.30946935930189723
111	0x3ff95273b7fb42c0	1.5826298891808364
112	0xbffabcdbb0850119	-1.6711079497618526
113	0xbfebcb159bf47a88	-0.8685405775066366
114	0x3fefea460fd86c43	0.9973478612404353
115	0x3fe14136c1e1be96	0.539210680652064
116	0x3fe7e6d8bd66eae8	0.7469295214899292
117	0xbfeea80b33c07dcb	-0.958013154104202
118	0xbff718eac3721321	-1.443583262881653
119	0x3feef26ce014edc0	0.9670929314228758
120	0x3febec2dcbb09ef9	0.8725804308241712
121	0x3fe6b69f40fd9a49	0.7097927350376462
122	0x3fe6bebc89be17a0	0.710783261326231
123	0xbfe660e142f58b3a	-0.6993261630817422
124	0x3fc44664b05f3c15	0.15839823352732255
125	0xbfe296b2664846f0	-0.5808956144048505
126	0xbfed7eab02607b33	-0.9217124029563365
127	0x3fc49f311cd401bb	0.16110814960121708
128	0xbfdfd4484aeea5e0	-0.497331689048762
129	0x3fea69d8c3fafb5f	0.8254207446806098
130	0x3fe66a3e7f1af3d6	0.7004692537808477
131	0xbff6697cb9f5e057	-1.400753713996911
132	0xbff7ac382371974c	-1.4795457252998458
133	0xbffd66d9a22bcf40	-1.8376098952112017
134	0xbff32f3e0f35fa52	-1.1990337938474522
135	0xbff10b277e64c4fc	-1.0652232110263062
136	0x3ff32d5bf7d5b033	1.1985740357440704
137	0xbfc4a748d27a1924	-0.16135511662668833
138	0xbfd91efedccfb3e3	-0.39251681865317617
139	0xbfce2adb17deda0a	-0.23568285623123614
140	0x3fe80942e51d18d9	0.7511305308223896
141	0x3fcd390bd6b43c8d	0.22830341323467387
142	0x3fca583000aabd14	0.20581626923147012
143	0x3fed99a6b87b88a4	0.9250062564062955
144	0xbff1adbc1ce9908d	-1.1049157266034257
145	0xbf3745db2df7add6	-0.00035511590064515647
146	0xbfd569e9ad28a42b	-0.3345894042018382
147	0x3fd5a78afdfda3f5	0.338351009405016
148	0x3fe5f34ad2a5790c	0.6859487642466617
149	0xbfb52d025da6f338	-0.08271803652219212
150	0xbf77ba0f34a49fb3	-0.005792674443263412
151	0x3fa142873b480ed0	0.03371069525385695
152	0xbfd5d44e54b72028	-0.3410831286714733
153	0xbfd340f0262623b3	-0.3008385059879927
154	0xbfe2d67c4c1965c4	-0.5886823164284398
155	0x4004f634b60a2da1	2.6202177259308006
156	0xbfee9dffd7577888	-0.9567870336429829
157	0xbfb5514aaff6665b	-0.08327166362723785
158	0xbf8484f0d33dda94	-0.010019189306814703
159	0xbfe47337b91f805c	-0.6390646567997567
160	0xbfb2683fe3487fa9	-0.07190322207361412
161	0x3fd069cf510b8746	0.2564581195311927
162	0xbf91500e5be8ae91	-0.016906952247309596
163	0x3fedbcb23f70708b	0.9292842139289105
164	0xbffafce982c0cba9	-1.686746130709006
165	0xbffbecef2e56d100	-1.7453452882883198
166	0x3fe4d8d7281d4775	0.6514697822078533
167	0xbff5d94513c6a02a	-1.3655443928237312
168	0x3ff42ddea878bd25	1.2611986714289938
169	0x3fdc634328c0bf5b	0.44355849246766405
170	0xbfd65c07c0875bf8	-0.34936708261142213
171	0xbfe0b583bf7d1092	-0.5221575489054138
172	0x3ff0ff4f503549a3	1.0623314984446572
173	0xbfef2ba86b196c1a	-0.9740793315680805
174	0xc00b0790609bc628	-3.378693346742484
175	0x3ff5ff819b5c0bcc	1.3748794621212594
176	0xbfe8bfe30e1d48c2	-0.7734236980125149
177	0xbfd9199db471db5f	-0.39218847867544143
178	0xbfeba6c38684d343	-0.8641069056817304
179	0x3fb0f7a303bf9dc9	0.06627863732830187
180	0x3fe3db43b2326c46	0.6205156784448114
181	0x3fd25d22d1fdcaaa	0.2869345713326462
182	0x3ff672f0c91dbc53	1.403061662301998
183	0xbfdab8c3835d4af6	-0.41752708271557937
184	0x3ffc8768fc5f98cd	1.7830591066681791
185	0xbfe17efbf366e346	-0.5467509988730874
186	0xbfdd1168d9768b03	-0.45418759571673223
187	0xc00269b0342928c2	-2.3016056132374567
188	0xbfb2defe3a5c81d2	-0.07371510433996001
189	0x3fef0375c8da5386	0.9691723750025723
190	0x3ff0f7327708f92f	1.0603508615309456
191	0xbfe1cb3bd74991e8	-0.5560588078338329
192	0xbff4a4bb47c143bb	-1.2902176669051488
193	0xbfd1fa19ac8d7eec	-0.28088991022921905
194	0x3fc8c52eee1ed0a1	0.1935175574013828
195	0xbfc2135a3e730a2e	-0.1412155919006905
196	0x3fa1f57a6afa44f5	0.03507597499732099
197	0x3fca0dee9b3c43d1	0.20355017261365885
198	0x3fedf5c87eee314d	0.9362528304205086
199	0xbff37a70545d05d4	-1.217392282051482
200	0x40013641eff6a93f	2.151492953028679
201	0xbff758c6c9d0c71e	-1.4591739543361153
202	0x3fd47f83a407b6fc	0.32028285044258076
203	0xbff7a1492afd681e	-1.4768764189998431
204	0x3fcfc3409f663f45	0.2481461313550374
205	0xbfc2d5cf6a8194c2	-0.1471499700593651
206	0x3f9b6bcdbdc63437	0.02677842589178089
207	0x3ff84d2aaaddb105	1.5188395189716755
208	0xbfcb1fbe7b6aa796	-0.21190625215723163
209	0x3ff1c4999cef5dd2	1.1104980592989375
210	0xbfd78b91514de0c3	-0.3678935331331667
211	0x3f5d2d7a190c8afd	0.0017808620797913892
212	0x3ff03858fc2a4e0b	1.0137567377286156
213	0x3ffa7e44ca1f47ab	1.6558273215673391
214	0xbfe0114c5b542179	-0.5021116050493638
215	0xbfd49f7ea50beca7	-0.3222347842963224
216	0x3ff320bfffd15aa8	1.1954956047899632
217	0x3fef48b7f209574d	0.9776267745280421
218	0x3fba658bf4f21693	0.10311197977179125
219	0x3fcb717ef55fde92	0.21440112096000924
220	0x3ff2c9ef148343f1	1.17430027020259
221	0x3fe3828ad5369037	0.6096853412932494
222	0xbfd013ce63c7f59b	-0.25120887512442786
223	0xbfc8efb695e452a3	-0.1948154670614218
224	0xbfe003447c3f9c1d	-0.5003988672950787
225	0x3fe95bdcecf0c4a2	0.7924637439483784
226	0xbfdb6319b4761618	-0.42792360900088644
227	0xbfd8c1bb4e3f9c99	-0.38682444230512086
228	0x3fe96e4aae110210	0.7947133445487129
229	0xbf98f8e4706824cf	-0.024386948929564774
230	0x3fe11e8fed4413fa	0.5349807390308563
231	0xbfef481ac680fed3	-0.9775518300084179
232	0xbfe934bcbf694279	-0.7876876581668305
233	0xc0055b8fbdef66db	-2.669707759731734
234	0xbfeba4068a541967	-0.8637726499298822
235	0xbfc42676914fa9ac	-0.1574238023307094
236	0x3ff2663f61f20774	1.1499627901070797
237	0xbfce787ee84a1fe7	-0.23805223791373395
238	0x3fea13cb63e63331	0.8149163199574102
239	0xbfd55d7ede1fb72d	-0.3338315171412088
240	0xbfd16874e01213ac	-0.27200052148719567
241	0xbfc3b6f4163fd3ed	-0.15402079664605087
242	0xbfeafd458fae7dfb	-0.8434169584542696
243	0xbff6ecf8f5752388	-1.4328546131311857
244	0x3fe89ac334aff6d0	0.7688919095087048
245	0x3fe6dd81ceb172a5	0.7145394360519118
246	0x3fea04b8d4ff7e1e	0.8130764160268347
247	0x3fd1528de1f2ee82	0.2706637102635129
248	0x3fffaa4805246a1f	1.979072589957134
249	0xbff329aaa1ae5b3e	-1.1976724925677469
250	0xbfe3087d2e95a045	-0.5947862539151251
251	0xbfe540f07b12c953	-0.6641771701600113
252	0xbfff4cec02ed310f	-1.956279765540845
253	0xbfe0ddc5e63e64ee	-0.5270719048450283
254	0x3fd89096868b112d	0.38382495059001337
255	0x3fe199b384fe8357	0.5500123593848042
